prioritized.pt (torch_old, 121237 bytes, 12 tensors)

fc1.weight f4 [128, 33]
000000 e8 57 50 3e 84 f8 68 bc e0 4c b0 3c 60 0f 6e 3b
       0.20346034 -0.014219407 0.021521032 0.0036325082
000010 ca f8 81 3d 4b 22 b1 bb a0 b5 8a 3c 57 1d 83 3c
       0.06346281 -0.0054056994 0.016932309 0.016005201
000020 5d c5 e4 3d 2e 24 16 3e a9 be cc bc 73 d7 ac bc
       0.111704566 0.14662239 -0.024993258 -0.021098828
000030 cd f8 97 bc 71 cb 26 be 93 c0 c9 bc 33 cb c5 3d
       -0.018551255 -0.16288544 -0.02462796 0.09657898
000040 52 f3 9d bc c6 09 e4 bb a7 45 e2 bc a9 3c 87 bd
       -0.019281063 -0.006959173 -0.027621103 -0.06603367
000050 a4 39 af 3c e0 6c cd 3c b4 44 a6 bc 84 d8 09 bc
       0.02138979 0.02507633 -0.020296432 -0.008413438
000060 15 50 5e bc 8d e2 d0 bc fa 1e 07 3e ab 4e 25 be
       -0.013568898 -0.025498653 0.1319541 -0.1614329
000070 ef cd ac bd 2c 83 34 bd 68 14 8b bd 4e 03 1a 3e
       -0.08437716 -0.044070408 -0.067910016 0.15040323
000080 6d 3c 0d bf c1 6f a4 be 41 e6 00 be 73 61 33 be
       -0.5517033 -0.3211651 -0.12587835 -0.17517643
000090 af f2 84 bc 53 c9 dd bb e2 f1 63 3d 61 35 8b 3d
       -0.016229002 -0.0067683845 0.0556506 0.067972906
0000a0 1e 33 33 bd 16 07 86 bd 0b b1 ee 3d f9 74 bc bd
       -0.04374992 -0.0654432 0.11654862 -0.09201998
0000b0 27 b3 e2 bc 05 a5 04 bc b6 e0 61 3d 54 5c bb 3d
       -0.027673317 -0.008095984 0.05514594 0.091484696
0000c0 2b 76 b7 bd 08 8e 6d 3c 6f a0 a0 3d cb 54 14 3e
       -0.089580856 0.014499195 0.078431 0.14485471
0000d0 e5 52 b7 3d 5f eb c8 3d 15 4e 37 3e e3 d5 8e bc
       0.08951358 0.098105185 0.1790088 -0.017435974
0000e0 e9 9e 0d 3e 7e e2 e5 bd 04 46 17 bc a2 33 a1 bc
       0.1383015 -0.112248406 -0.009233002 -0.01967794
0000f0 30 41 a1 3d 0d 79 cb 3d 22 2e d3 bd a3 85 57 3d
       0.07873762 0.09935198 -0.103115335 0.05261768
000100 f0 b6 c3 3d 69 82 cb bd ca d2 14 bd 2a 86 a6 bd
       0.09556377 -0.09936983 -0.036333837 -0.081310585
000110 f3 fa fd bd 32 1e 3a 3e e4 c1 e3 bd 8a d6 c4 bd
       -0.124013804 0.18175581 -0.11120966 -0.096112326
000120 f6 bc 17 be 10 7e 8e 3d c7 10 00 3e a1 95 21 3e
       -0.14818177 0.06957638 0.125064 0.15779735
000130 58 ab 31 3d 4b 5b 1e be 0c 15 1c 3d 25 82 35 bd
       0.043376297 -0.15464513 0.03810601 -0.04431357
000140 82 76 f2 bd 92 50 47 3e 6d e2 95 3d 1e a2 05 be
       -0.1183901 0.19464329 0.07318578 -0.13050124
000150 53 a1 92 3d 08 a5 5c 3c 1a a9 b3 3b 7f 8e 31 bd
       0.071596764 0.013467081 0.005482805 -0.043348785
000160 34 c0 3f bc fc 3c 1e 3a a0 dc 3d 3c 54 75 77 3d
       -0.01170354 0.0006036309 0.011588246 0.060414627
000170 78 3e a8 bc 79 50 85 3d 11 f7 25 bc 82 44 e7 bd
       -0.0205376 0.065094896 -0.010129706 -0.11292364
000180 1b 00 b2 3d 8c 3c 15 3d 44 f5 21 bf 1d 21 11 be
       0.08691426 0.036434695 -0.6326487 -0.14172788
000190 af 17 8c 3d 0b 32 fb 3c 56 d7 37 3d 3e cd cc bd
       0.06840455 0.03066351 0.044883095 -0.10000084
0001a0 2a db 6f bd f1 c6 9a bd 91 7a a6 3c fa 96 d5 bd
       -0.05855862 -0.07557476 0.020322116 -0.10429187
0001b0 42 ac 91 bd 26 17 97 3c 2a 50 03 3d 29 f3 d3 3d
       -0.07112934 0.018443655 0.032058872 0.103491135
0001c0 92 ba 39 3c 67 e6 f0 3e 3a ea 0c 3e 03 43 92 3c
       0.011335986 0.47050783 0.13761225 0.01785422
0001d0 a0 44 39 bb d4 dc 29 bc 57 82 06 bc 5b 37 81 3d
       -0.0028269663 -0.010367591 -0.008209786 0.06309386
0001e0 6e 03 6e 3c 51 92 30 bb 8d 7f 22 be 75 4a 9d 3d
       0.014527185 -0.002694268 -0.1586897 0.07680217
0001f0 b9 75 c5 bc de ec 18 bd a6 d7 32 bd 37 2d be bd
       -0.024103986 -0.03733527 -0.04366269 -0.09285968
000200 5e 70 79 bd c1 03 12 be ac ab 17 bd 9c b7 57 3d
       -0.060898177 -0.14259245 -0.037028953 0.052665338
000210 15 57 f8 3d 5d fa 3e be 79 ef 1b 3e 3d b6 17 3e
       0.121259846 -0.18650194 0.1522807 0.14815612
000220 7b 1d 25 3e ec a6 46 bd 33 84 9b bd 2f 12 bf 3d
       0.16124527 -0.048499033 -0.075935744 0.0932964
000230 03 23 c0 3d 93 dd f3 3c 67 34 69 3d ef 65 71 bc
       0.09381678 0.02976874 0.05693474 -0.0147337755
000240 67 a5 c8 3c 82 33 23 bd 41 72 84 bc a4 7c f7 ba
       0.024492932 -0.039844044 -0.016167762 -0.001888175
000250 a6 21 9b bd 99 51 47 bd ba 24 62 bd 2b 1d a8 3c
       -0.07574777 -0.048661802 -0.055210806 0.02052172
000260 f5 5b 15 3d 81 47 58 3d ea d7 3c 3d 6b 8e e2 bd
       0.03646465 0.052802566 0.04610435 -0.1106232
000270 9a 8a 44 3d b0 ac 14 be 0a 74 6e bd ed a6 90 bd
       0.047983743 -0.14519 -0.058216132 -0.070630886
000280 4e ca 21 be 28 ff 0b bd 36 e9 1f be 9e e9 19 be
       -0.1579983 -0.034178883 -0.15616307 -0.15030524
000290 d5 03 0a bf b9 f6 83 be ab a6 a7 3d 83 5b 1a 3e
       -0.539121 -0.25774172 0.08186086 0.15073971
0002a0 60 c1 1d be 98 37 8b bd 10 c4 c0 3d 2e df 38 bd
       -0.15405798 -0.06797713 0.09412396 -0.045134716
0002b0 49 52 dd bb c9 2e e9 3d 4b f9 3f be ff c4 a1 3d
       -0.006754194 0.11385877 -0.18747441 0.07898902
0002c0 7f 8b f5 bd 7a 59 28 3d ca e2 0e 3d 1d f6 66 be
       -0.119894974 0.041100956 0.03488425 -0.22554822
0002d0 7c f6 48 3d d4 08 9a bd 76 f9 8c 3c 95 96 6c bd
       0.04906319 -0.07521215 0.017208796 -0.057760794
0002e0 f0 dd 3f 3d d0 0d 0f 3d da 03 99 3b ca 37 c5 bd
       0.046842515 0.034925282 0.0046696486 -0.096297815
0002f0 49 e1 0d be 9a 93 94 bc ab 0b 0e 3d 1c cd c6 3c
       -0.1385547 -0.018136788 0.034679096 0.024267726
000300 c9 a1 fb bd 22 85 64 bd 1a 51 fb bd cd 18 c4 bd
       -0.122867174 -0.055791028 -0.12271328 -0.09575043
000310 af bd cf bd 6f bc c7 3e e3 f5 10 be ab 99 f2 b9
       -0.10143601 0.3901095 -0.14156298 -0.00046272328
000320 e8 0b f2 3d 4d 59 84 3d 73 77 e5 bc 82 95 de bc
       0.11818677 0.06462345 -0.02801106 -0.0271709
000330 f6 cf 11 be 58 d7 4a 3d 67 e3 f6 bd bd dc 58 3e
       -0.14239487 0.049521774 -0.12055092 0.21177955
000340 af 30 c0 bc ed ce 84 3d a6 26 03 3d fe d6 62 3e
       -0.023460714 0.064847805 0.03201928 0.22152326
000350 26 47 dd 3d d1 40 ee bb 75 8d 8f 3d 58 3b d8 bb
       0.10804586 -0.0072709103 0.07009403 -0.006598871
000360 d2 97 88 bb 7c 95 f5 3c 77 ed d8 ba c3 38 29 be
       -0.004168489 0.029978506 -0.0016550262 -0.16525559
000370 9d 8a 78 bd 2f fb 65 3c 1d a4 e7 3c be 43 bf bb
       -0.060679067 0.014036938 0.028276497 -0.005836933
000380 2b 0a ea bd f7 ab b0 3d 5e ef dd 3a c8 66 4a bd
       -0.11427721 0.0862655 0.0016932299 -0.049414426
000390 ba 5c 6f bd e0 2d d3 bc a8 17 e5 be 85 f1 58 3d
       -0.05843804 -0.02577871 -0.4474461 0.052964706
0003a0 2a fe 8d bd 4f 95 1a 3c 2b ec 90 3d b5 0d fe bd
       -0.069332436 0.009435012 0.070762955 -0.12404958
0003b0 74 2c 83 3d ca 9d b9 bd ff 37 11 be fd af 40 3d
       0.06404963 -0.09063299 -0.14181517 0.047042836
0003c0 5d 58 b4 3d 41 21 a0 3d 2e 0f b5 bd ec fb e8 3d
       0.088059165 0.07818843 -0.08840786 0.11376175
0003d0 38 4f 2a 3e 30 66 51 be 75 7f 18 3e 03 d4 d0 3a
       0.16631782 -0.20449138 0.14892371 0.0015932325
0003e0 ac 36 5f bd 78 dc d8 3d 9b fa 09 be 01 9b a9 3b
       -0.0544955 0.10588926 -0.13474505 0.0051759486
0003f0 74 d6 26 3e c1 11 09 bc 4e 4f ac bc 72 ae 49 3c
       0.16292745 -0.008366049 -0.02103391 0.012309657

fc1.bias f4 [128]
000000 92 24 9d 3d 3d d7 0d 3e 05 19 2a 3e 4e 8d 19 3e
       0.07672991 0.13851638 0.16611107 0.1499531
000010 f7 36 c4 bd e8 79 23 3d 21 ec df bd bb ff 7a 3b
       -0.09580796 0.03991118 -0.1093371 0.00382994
000020 40 d5 13 3e 20 76 af 3d 9f 7a 24 be e7 7d 99 bd
       0.14436817 0.085674524 -0.16062401 -0.07494717
000030 c7 65 16 be 49 f1 a7 3d 4a 05 b5 bc 74 82 02 be
       -0.14687262 0.08200318 -0.022097249 -0.12745076
000040 30 81 63 bd 1c 3e 6a 3d c0 11 84 3c 53 2a 27 3e
       -0.055543125 0.05718814 0.016121745 0.16324739
000050 1b ae 1a bb a2 12 60 3d 8e 3d 58 bd f7 c3 a9 3c
       -0.002360231 0.05470527 -0.052793078 0.020723326
000060 be 01 cb 3b 79 01 19 3e c0 22 95 3d 4d 1e cb bd
       0.006195276 0.14941968 0.07282019 -0.09917889
000070 75 65 1e be 7a b6 29 be fa 7e 81 bd ce 8d b8 3c
       -0.1546839 -0.16573516 -0.06323047 0.022528555
000080 c2 ae 27 3e f6 d9 8c bc a9 59 8b 3d 17 09 b5 3d
       0.16375259 -0.017193776 0.06804211 0.088396244
000090 1a 8a 08 be c7 6a 13 be f5 3c 87 3d c7 4b a6 3d
       -0.13333932 -0.14396201 0.066034235 0.08119922
0000a0 b0 fc a5 bd 1a 2b de 3c aa a7 2e be 51 5e 0e 3b
       -0.08104837 0.027120162 -0.17056146 0.0021723697
0000b0 e6 b9 2e 3d 16 0a e3 3a b3 f0 e2 bc db 14 94 3d
       0.042657755 0.0017321731 -0.027702665 0.0723054
0000c0 37 2d 44 bd 94 ac 04 3e 05 55 19 be 69 d0 cb bd
       -0.047894683 0.12956458 -0.14973839 -0.099518605
0000d0 57 cf 14 be 9c 57 21 be cc fc 03 3e 67 6d 30 bd
       -0.14532219 -0.15756077 0.12889403 -0.043073084
0000e0 93 1c 0c be e0 e4 13 3d de f9 06 be e9 75 13 3c
       -0.13682775 0.036106944 -0.13181254 0.00900028
0000f0 44 6b a9 3d 58 25 18 bd 9c 35 b7 3d 69 31 12 3d
       0.082724124 -0.03714499 0.08945772 0.035691652
000100 4b 0b 0f be 0f 4c 0c 3d 2a e0 e5 3d 9b 5c 25 bd
       -0.13969152 0.034252223 0.112243965 -0.04037152
000110 6b 91 86 3c 0c 00 b5 3c ca 36 75 3c c6 50 39 3d
       0.016426763 0.022094749 0.014966676 0.045243047
000120 06 eb 2a be b8 3f 07 3e 40 a6 9b 3d d7 df af 3c
       -0.16691217 0.132079 0.07600069 0.02146904
000130 72 67 01 3d b7 bd 0f be 66 7d 4b bd b1 69 f7 bb
       0.031592794 -0.14037214 -0.049680136 -0.007550441
000140 4c 49 29 3d cc 7f c3 bd 1a 57 97 3c c3 e2 5c bd
       0.041329667 -0.0954586 0.01847415 -0.053927194
000150 e4 ab 01 3e 9f d1 18 be a8 4e 95 3c 3d 6e f1 3d
       0.12663227 -0.14923714 0.018225983 0.117886044
000160 5b 63 0a be 47 8b a1 bb 3d 45 a4 3d 10 dd 8f 3d
       -0.13514464 -0.004929933 0.08021019 0.07024586
000170 1d ea a7 3c b4 1c 90 3d f3 5c f8 bd f0 8e 14 3e
       0.020497376 0.07036725 -0.12127104 0.14507651
000180 4e 98 7e 3b 73 61 e6 3d 6a 0b 1e 3d 33 bc 9d bc
       0.0038848105 0.11249056 0.038585104 -0.01925478
000190 e8 9e 98 3d fa 36 29 3e 46 d3 2f 3e 7d fc 15 be
       0.07452184 0.16524878 0.17170438 -0.14647098
0001a0 79 6f 2d 3c 85 e4 ff bd 2a b8 cf 3d d7 e4 ff 3d
       0.010585659 -0.124947585 0.101425484 0.124948196
0001b0 68 3d fa bd 33 44 24 bc 11 db f6 3d 33 eb eb 3d
       -0.122187436 -0.010026026 0.12053502 0.1151947
0001c0 f1 14 06 be bc 5c ef 3d 64 8b fc bc d6 59 17 be
       -0.13093926 0.116876096 -0.030828185 -0.14780363
0001d0 7c 32 0e 3d 3b 63 a6 3d 81 ac d5 3d 8e 86 f2 bd
       0.034716114 0.081243955 0.10433293 -0.118420705
0001e0 db 1d 01 be ba 63 ef bd 93 1b ca 3d 49 cb 1b be
       -0.12609045 -0.11688943 0.098685406 -0.15214266
0001f0 22 e7 ba ba 9b bb 51 bd d4 a6 9b 3d 41 33 0c 3d
       -0.0014259557 -0.051204305 0.07600179 0.034228567

fc2.weight f4 [128, 128]
000000 64 86 d2 3d 61 a4 7c bd 32 eb a8 3c 60 2f f6 bc
       0.10279539 -0.0616802 0.020619962 -0.030051887
000010 09 16 b4 bd 18 f2 8d bd 7e 37 0f be 97 b2 12 ba
       -0.08793265 -0.06930941 -0.13986012 -0.000559607
000020 65 12 c9 3d d8 70 62 3d 5d e8 a0 bd 49 ee 2a 3e
       0.098179616 0.055283397 -0.0785682 0.16692461
000030 b7 07 60 3d 4b 9d 98 3b 43 06 dc bc 0c 17 35 3d
       0.054694857 0.0046574227 -0.026858455 0.044211432
000040 43 4b aa bd fe e9 35 3d 51 24 a8 bd d7 0d ca 3d
       -0.08315136 0.044412605 -0.08210052 0.09865921
000050 b3 21 51 3e 22 e9 4f bc 4f df 95 3d f6 c6 04 be
       0.20423011 -0.012689861 0.07317983 -0.12966523
000060 4a df 31 3c 31 7f 4b 3e 58 58 b7 3d 91 f1 a1 bc
       0.010856459 0.19872738 0.08952397 -0.019768508
000070 86 de 06 3e 6d dd 2d be e5 26 7b 3d 77 7a 28 bd
       0.13170823 -0.16978998 0.06131639 -0.041132417
000080 6f 3a 48 3c 8c d6 a8 bd 35 be a1 bc 34 36 08 be
       0.012220963 -0.082440466 -0.019744018 -0.13301927
000090 d9 d3 0a 3d 10 5c 85 be 37 d5 8c 3d f8 71 d2 bd
       0.03389344 -0.260468 0.06876605 -0.10275644
0000a0 a6 b8 9e bc 6a 30 98 3d b7 7f 48 3e c5 94 9b bc
       -0.019375157 0.07431109 0.1957997 -0.018991837
0000b0 8b 46 0a 3e 04 7a ca bd 78 92 71 bc 5a 6f 3e be
       0.13503473 -0.09886554 -0.0147443935 -0.18597165
0000c0 21 be 24 3b bc ba 77 bd e9 88 84 3d ba 5b 3c 3c
       0.002513774 -0.06048082 0.06471426 0.011496479
0000d0 ad 32 f4 3c c2 ec 2b 3e 39 8e 19 be ef b6 65 3c
       0.02980932 0.16789535 -0.1499566 0.014020666
0000e0 bc 4d a5 3d 73 41 ee bd 1f 90 72 bd 59 52 a3 bc
       0.08071467 -0.11633577 -0.059219476 -0.019936727
0000f0 7f c3 31 be be 45 03 be ae 02 9d bd 2e c0 a2 3d
       -0.17359732 -0.12819573 -0.07666527 0.079468116
000100 23 1b d6 3c 9e c3 4b bd 00 a1 8c bd 7f 6c 25 bd
       0.026135987 -0.049747102 -0.06866646 -0.040386673
000110 5a 2e 5e bd 43 ba 38 3c 67 cc 57 bd c1 54 df bc
       -0.054243423 0.011274877 -0.052685168 -0.027262093
000120 f1 8f 92 3d 36 e4 21 bc 0a 3d b1 bd 1b ae 02 3e
       0.07156361 -0.00988107 -0.086542204 0.12761728
000130 b4 63 02 bc d7 8e d7 3d 4c 1d 5d 3d 32 81 cf bd
       -0.007958341 0.105252914 0.053983018 -0.10132064
000140 17 99 f1 3c 7e 40 74 3c 10 95 71 3d 6d fc 6c bd
       0.029491944 0.014907954 0.058980048 -0.05785792
000150 87 e6 89 bd 2a 3c c6 bd 51 06 02 bd b5 48 34 3e
       -0.06733423 -0.09679444 -0.031744305 0.1760586
000160 00 2d 00 bd 8f 3a c4 3d 82 84 0c 3d 17 69 18 bd
       -0.031292915 0.09581482 0.034306057 -0.037209596
000170 82 3d 73 3d 38 47 df 3d 1b f2 2c 3a 53 0f 02 be
       0.05938483 0.10902256 0.0006597356 -0.12701158
000180 25 f2 26 be ce fd 0f bd 01 0a 9d 3c 74 31 c7 3c
       -0.16303308 -0.035154156 0.01916981 0.024315573
000190 31 1a 08 3d a5 a9 50 3d cc 52 8d bd 7d bb 01 3e
       0.033228103 0.050943036 -0.06900558 0.12669177
0001a0 75 bd fe bc ff 16 28 3e 65 64 d5 bd 59 98 bb 3d
       -0.0310962 0.16415022 -0.10419539 0.091599174
0001b0 ee 62 a9 3d 14 3c 7c 3d 16 09 fc 3d 5b 9f e7 3d
       0.082708225 0.061580732 0.123064205 0.113096915
0001c0 aa 62 81 bd 56 53 dd 3d 17 0a df 3d ba eb 29 3d
       -0.06317647 0.10806911 0.10890596 0.041484572
0001d0 02 30 36 3e 9b 29 88 3e 2e 23 c7 3d 75 4b f0 3b
       0.17791751 0.26594242 0.09723507 0.007333214
0001e0 d6 62 54 3b e5 d9 83 bd d9 35 d3 3d 4e 1b fe bd
       0.0032407544 -0.064380445 0.10313005 -0.12407552
0001f0 30 5a 56 bd a4 42 91 3b d2 00 61 bc 78 43 c8 3d
       -0.052332103 0.004432993 -0.013733106 0.09778494
000200 2c ac 2b bd a1 8c 0b 3e dd a8 34 be f7 6d 70 be
       -0.041912243 0.13627864 -0.17642541 -0.23479448
000210 01 90 11 3d ae 30 bc 3c a4 b5 b2 be 0c cf 8d bd
       0.035537723 0.022972431 -0.34904206 -0.06924257
000220 9d 10 32 3c 10 95 f6 bb 0b 29 72 bd fb 98 93 bd
       0.010868219 -0.007525094 -0.059121173 -0.07206913
000230 f2 42 49 3e a4 0f 34 3d 70 73 19 3d 80 c9 82 3c
       0.19654444 0.04396023 0.037463605 0.015965223
000240 31 59 b0 bd df bf 7c 3c 4a ba 42 3e 46 65 8c bd
       -0.08610762 0.015426605 0.19016376 -0.06855254
000250 ca fb 95 3c 02 d1 a4 bd b3 8b 90 3d c6 4d 40 bd
       0.018308539 -0.080476776 0.070578955 -0.04694917
000260 f3 3b 8c 3c 61 aa 22 bd 9d da b7 3d a9 c8 ff 3d
       0.01711843 -0.039713267 0.08977244 0.12489445
000270 49 8d 54 3d ba 8f c5 3c dd c1 4c bd 80 6a a3 3d
       0.051892553 0.024116386 -0.04998957 0.07979298
000280 d9 48 ef 3c 9d 35 04 bd f6 3a 1d 3e 2e fa 9a bd
       0.029209541 -0.032277692 0.15354523 -0.07567249
000290 42 c8 f3 bd e4 ce ee 3d 40 61 41 3d 1c 6a f8 3d
       -0.119034305 0.11660555 0.047211885 0.12129614
0002a0 a8 8e 40 3e 92 12 b4 bc db 2c 8a 3d cc a2 1b 3e
       0.18804419 -0.021981511 0.06746837 0.15198821
0002b0 55 79 b1 3d b5 af 21 bd ad 34 97 be 6e 15 22 3e
       0.086657204 -0.039474208 -0.29532376 0.15828487
0002c0 cc 55 8b 3c a5 dc 87 3d 0c 7c a5 bc f6 76 0c bc
       0.017008685 0.066338815 -0.020200752 -0.008573284
0002d0 88 fb 6d bd ad 1f c4 3d 26 9a b2 3d dc 00 08 bd
       -0.058101207 0.09576354 0.08720808 -0.033203945
0002e0 b9 b7 cd bb f1 ba b2 3d 17 6b 9b 3d 5d f2 8d bc
       -0.006278005 0.087270625 0.07588785 -0.017327482
0002f0 be 7c 03 bd 96 68 b1 3d c1 c5 75 3d 4e 8e 0f 3e
       -0.032101385 0.08662526 0.060003046 0.14019129
000300 e6 c8 45 bd e0 da 1e be ad 89 0c be fb 5f 3c be
       -0.048287295 -0.15513182 -0.13724394 -0.18395989
000310 e6 ad c2 3d b9 0e 8f 3d 74 90 12 3e 8d d0 09 be
       0.09505825 0.0698523 0.14312917 -0.13458462
000320 36 25 02 be 90 9e 12 bd ee df 1b bd fe a8 f4 bb
       -0.12709507 -0.03579575 -0.038055353 -0.0074664345
000330 4a cf a9 3c 3a bc 91 bd 7e 05 e3 3d bb 8c 49 bd
       0.020728726 -0.071159795 0.11085032 -0.049206477
000340 13 79 4c be a3 60 06 bb 96 c8 d7 3d 99 7a cf 3d
       -0.19968061 -0.0020504377 0.105363056 0.101308055
000350 57 c5 04 bd f9 b8 9c 3c b4 8d 23 3d d8 1f a0 bd
       -0.03241476 0.01913117 0.03993006 -0.07818574
000360 b4 92 b5 bc c9 f6 cf 3b 3e 33 ae 3b 3f 70 64 3d
       -0.02216468 0.0063465578 0.005316167 0.05577111
000370 df 32 cd 3d 6d 5d 81 bd 87 b2 8b 3d 1c 93 73 3d
       0.100194685 -0.06316648 0.06821161 0.059466466
000380 ca 54 0b bd 6e a9 b3 bd 46 01 47 3e b6 a7 c5 b8
       -0.034016408 -0.087725505 0.1943408 -9.4249306e-05
000390 a9 72 b2 3d 07 6f 65 bd 2e b1 9b 3c fc 91 ce bd
       0.08713276 -0.056014087 0.019005384 -0.10086438
0003a0 31 ff 8c bd 30 10 e2 bd 8e d8 ad 3c c7 34 19 3b
       -0.068846114 -0.11038244 0.021221425 0.0023377405
0003b0 40 2d 18 be c4 c0 d5 bd 86 51 00 3e 65 f6 90 3d
       -0.14861012 -0.10437158 0.12531099 0.07078246
0003c0 b6 b7 d9 3b a4 cb 4e 3d 6e 78 8f 3d 03 0e e6 3d
       0.0066442145 0.050487176 0.07005392 0.11233141
0003d0 26 b9 54 bd f4 b3 a6 bd e2 8a 10 be 33 56 4f be
       -0.051934384 -0.08139792 -0.1411548 -0.20247726
0003e0 b8 c3 ad 3d d0 03 15 be 5e 78 1f bd 13 a2 7e bd
       0.08484596 -0.14552236 -0.03893315 -0.062166285
0003f0 b9 3e 2c 3e 21 9e 1d 3e f9 9d 90 3d d5 ba d0 3d
       0.16820802 0.15392353 0.07061381 0.101918854

fc2.bias f4 [128]
000000 18 0c aa 3c 11 9c e5 3d da f3 74 bb ca cc 02 3d
       0.02075772 0.11211408 -0.0037376792 0.031933583
000010 1c 82 70 bc e8 22 7c bd 6f 29 09 bc f5 34 08 be
       -0.014679458 -0.061556727 -0.008371695 -0.13301452
000020 59 5a 7e 3a cb e5 28 bd 0b fc ef bc e2 2d cf 3d
       0.0009702794 -0.041234773 -0.029294988 0.10116173
000030 01 2a 59 3c e8 84 4a bd 44 48 8a bd b2 44 a0 3c
       0.013254643 -0.049443156 -0.06752065 0.019564006
000040 cf 44 a7 bd d3 2f d2 bd 24 b8 f6 3c ca 55 c3 3d
       -0.08167421 -0.10263028 0.030117102 0.09537847
000050 9b f3 ed bd 49 0d b0 bc c6 ef 9b bd 45 62 92 bd
       -0.1161873 -0.02149071 -0.076140925 -0.0714765
000060 0e d2 1e 3c 08 cf d1 3c 38 70 b3 3d 9f 22 60 3d
       0.009693636 0.025611416 0.087616384 0.054720517
000070 c1 5c 27 bd dc 69 05 3e f5 42 39 3d fb 3c 3a bd
       -0.04085994 0.13028663 0.04522987 -0.04546831
000080 e1 3a ae 3b 85 75 91 bd 18 21 b8 bd 54 b7 91 bb
       0.0053170775 -0.07102493 -0.08990687 -0.0044469032
000090 88 36 ec bc be 4c 12 bd a4 b9 2c 3d 49 43 1d 3e
       -0.028834596 -0.03571772 0.04216923 0.15357699
0000a0 a2 0a dd bd 27 7d 50 3d 12 f8 e0 3d cb 27 3c bd
       -0.10793044 0.050900605 0.10984816 -0.045936387
0000b0 53 9c 0f 3d 6d aa a8 3d d1 7b c4 3b 50 77 44 bb
       0.03506119 0.08235631 0.0059962054 -0.0029978342
0000c0 91 50 47 3d db 29 11 3e 7a 39 01 3d 2d 05 2d 3d
       0.04866082 0.14176123 0.031548955 0.042241264
0000d0 85 f5 c7 bc 7e 74 ca bd 76 51 4f 3c 69 f1 06 be
       -0.024409065 -0.098855 0.012653699 -0.13178028
0000e0 88 d0 44 3b 20 76 9d 3d de b0 17 3d 33 2b 2e bd
       0.003003152 0.07688546 0.037033908 -0.042521667
0000f0 f6 a6 db 3d d0 fe cd bc 3a 45 2d 3c 85 8e c2 3d
       0.10725205 -0.025145918 0.010575587 0.0949984
000100 b1 5e 05 bd 6e 14 32 be f8 ff 8b bd e1 50 43 bd
       -0.032561008 -0.17390606 -0.068359315 -0.047684554
000110 7e d5 59 bd fc a6 98 3d 77 85 a6 3d 5f 47 61 bd
       -0.053182118 0.07453725 0.08130925 -0.054999705
000120 93 bb 15 bd 37 de bc 3c 20 4d 45 3d 03 20 fd 3c
       -0.036555838 0.023055179 0.048169255 0.030899053
000130 d2 fb 74 bd 06 78 b6 3d 7c 77 32 bd 9e e7 24 3e
       -0.059810467 0.089096114 -0.04357098 0.1610398
000140 4a c7 58 3c d5 a7 05 3d 9c 70 3e bc 85 10 d9 3c
       0.013231108 0.03263076 -0.011623528 0.026497135
000150 d5 6a b1 3d cb 69 41 bd 3e 42 03 3e 49 ac bd bd
       0.08662955 -0.047220033 0.12818238 -0.092613764
000160 42 e7 87 bc 86 65 94 3d 4a d8 aa bc ec 12 55 3c
       -0.016589765 0.072459266 -0.020855088 0.013005
000170 ef 36 73 bd 9d 6c 70 3d f1 f7 aa bd 6f c9 89 bd
       -0.05937856 0.05869733 -0.08348072 -0.067278735
000180 d9 5b 16 be 32 6b 5a bb e0 42 bb bd a2 cf 4e 3d
       -0.14683475 -0.0033328054 -0.09143615 0.050490983
000190 25 10 f7 3a 63 18 9f bd 08 5e ee bd c1 73 c3 3c
       0.0018849416 -0.07768323 -0.11639029 0.023858907
0001a0 7b 0f 6e bd 8a 08 fd 3d aa c0 c7 3c 71 d7 d6 bd
       -0.058120232 0.12355144 0.024383862 -0.10490311
0001b0 18 0f b2 bd 4b 33 8f 3c 35 d7 81 bd 9e fe b0 3c
       -0.08694285 0.017480513 -0.063398756 0.021605786
0001c0 78 fb c0 bd fb c4 f8 3d 79 8a 1d bd 80 1b 2e 3e
       -0.09422964 0.12146946 -0.038462136 0.17002678
0001d0 69 14 85 3d d0 fa d3 bc cd cf 8c 3d 6f b5 b5 bd
       0.064980336 -0.025876433 0.06875572 -0.08872496
0001e0 68 eb f6 3d 5a 33 ce 3d 44 cf d1 3d 42 b3 d8 bd
       0.12056619 0.10068388 0.10244611 -0.10581066
0001f0 19 17 b4 3d e3 b4 3a bc b2 5b 20 3d c2 7b 8b 3d
       0.08793468 -0.011395666 0.039149947 0.06810714

fc3.weight f4 [64, 128]
000000 19 84 4b 3d da db 33 be 9d c3 02 3d d5 64 bf bc
       0.049686525 -0.17564335 0.031924833 -0.02336351
000010 7d 4e 26 3d dc c0 40 3e 8c 0c 13 3e f3 65 d6 3e
       0.040602196 0.1882357 0.14360255 0.41874656
000020 a4 37 86 bd 1d 7d 8c bd 28 54 8c 3e 23 f3 9c 3c
       -0.06553581 -0.06859801 0.27407956 0.019158905
000030 fb 20 a5 bd d1 0a 8c 3c 37 3b 13 bd e3 f8 1c 3d
       -0.08062931 0.017095001 -0.035945144 0.038323294
000040 24 13 e5 bd 0d 8b 75 3d 52 33 96 bb 84 71 19 be
       -0.111852914 0.059947062 -0.0045837546 -0.14984709
000050 2b 63 24 3e 69 66 0a 3e c5 89 58 be 6b 33 19 3e
       0.16053455 0.13515629 -0.21146305 0.1496102
000060 00 06 08 be 8c 51 34 3e e4 01 30 be 6c 0a 0f 3c
       -0.13283539 0.17609233 -0.17188221 0.008730512
000070 2a 1e 8f bc d9 f1 99 3d 62 5b a1 3c 7e e0 af 3b
       -0.017470438 0.07516832 0.019696895 0.0053673377
000080 3c 65 0e 3d 65 58 72 3d 1b b0 0c 3e 76 90 cb 3d
       0.034764513 0.05916633 0.13739054 0.09939663
000090 0d 12 55 bd 6d 1f 7a be c9 09 06 3e fe e0 36 be
       -0.052019168 -0.2442605 0.1308967 -0.17859265
0000a0 cc fa 02 3e 34 db 7e bd 70 68 8a bd 07 ee 9f 3d
       0.12790984 -0.062220767 -0.06758201 0.07809072
0000b0 e4 25 5f 3e 2f b2 9c bd b3 a1 d3 3d b3 a9 08 3e
       0.21791798 -0.07651173 0.10333576 0.13345985
0000c0 37 5b 00 be 7d ed 68 3d 90 a7 d1 3d 79 cf e6 3a
       -0.12534796 0.05686711 0.10237038 0.0017609439
0000d0 fc 8b 9d be e9 09 4a 3c be a2 a9 bd 20 f9 13 3e
       -0.30770862 0.012331464 -0.08282994 0.14450502
0000e0 9a 29 9e bc 61 07 96 bd 6d 59 4d bc c0 34 b3 3b
       -0.019306947 -0.07325626 -0.012533528 0.005468935
0000f0 ca d1 30 bd 43 bf fc 3d 89 37 d1 bd a9 6a 17 3d
       -0.04316882 0.12341168 -0.102156706 0.036966953
000100 58 3a 9f bc b6 42 b8 3e 92 87 a7 3d ce 6d 3d bd
       -0.019437 0.35988396 0.08180155 -0.046247296
000110 35 db 50 3e 26 29 c8 3d 0e cd 1e be e4 09 ba bd
       0.20396121 0.097734734 -0.1550791 -0.09083918
000120 54 55 03 3e 07 f9 83 3d a1 d8 ee bc 36 98 35 3d
       0.12825519 0.064439826 -0.029156031 0.044334613
000130 81 b4 00 3e f9 88 6d bc 62 38 8d 3d a3 72 0f be
       0.12568857 -0.014497989 0.0689552 -0.14008574
000140 64 73 17 3d de 68 89 bd da 27 2e 3e a2 7b b6 bc
       0.03697528 -0.06709455 0.1700739 -0.02227575
000150 6c 83 28 be fa 15 56 3e b6 c5 88 be 0f 3c b1 3d
       -0.16456383 0.20906821 -0.2671334 0.086540334
000160 3c b1 09 3d 0b 20 a0 bd f7 29 6b be 1a b3 9a 3d
       0.03361629 -0.07818612 -0.22965227 0.07553692
000170 14 dc a5 3d f8 ad 30 be 75 7e b2 3d e8 bf a5 bd
       0.08098617 -0.17253864 0.08715526 -0.08093244
000180 9a 1c 2d bd eb 50 76 3d c8 67 52 bd 9f f6 1c 3d
       -0.042263605 0.060135763 -0.051368505 0.038321134
000190 f2 e9 88 3d 03 64 a0 bd 18 71 46 3d 68 e4 07 3e
       0.066852465 -0.07831576 0.0484477 0.13270724
0001a0 6e 06 4d 3e 02 24 a9 3d 9d 83 4d bd 46 0f 88 3d
       0.20021984 0.08258821 -0.050174344 0.06643538
0001b0 e6 b5 f7 bc 32 52 dd 3b 60 b3 c2 3e 7b a6 9f bd
       -0.030238103 0.006754183 0.38027477 -0.077954255
0001c0 bb 70 a4 3c 37 93 a6 3d 29 91 4c bd 78 a1 49 be
       0.020073285 0.08133548 -0.049943123 -0.19690502
0001d0 c0 35 12 3b 04 27 89 bd d5 87 0c be c8 12 23 be
       0.002230987 -0.06696895 -0.13723691 -0.15925133
0001e0 53 10 06 be 71 ec d9 3c 65 9f ca bd 59 3a 1a 3d
       -0.13092165 0.026602002 -0.09893683 0.0376533
0001f0 d5 9a 84 bd e6 56 83 3c 23 d8 86 3e 13 1d 89 3d
       -0.06474844 0.016032647 0.26336774 0.066949986
000200 5b 4b 79 3d 61 a8 91 3d 69 f0 29 be 14 7e 23 3d
       0.06086288 0.07112194 -0.16595615 0.03991516
000210 9a 6b 0f be 8a ae 24 be 64 60 a6 bd ed f7 57 be
       -0.1400589 -0.16082206 -0.08123854 -0.2109067
000220 a9 69 01 3e dd f5 68 3d 74 0f ec bd c8 23 7d 3d
       0.12637962 0.0568751 -0.11526385 0.0618017
000230 c9 10 ed 3d e1 67 30 3d c3 68 43 bd 8f 45 1e 3e
       0.11575467 0.043067817 -0.04770733 0.15456222
000240 5e 47 b5 bd a2 2a 22 3c 8c 7a 7f 3e cf 35 b4 3e
       -0.08851503 0.00989786 0.24949092 0.35197303
000250 64 9d 0e 3d 0c a9 30 be b7 45 89 3d 8c b0 ed bc
       0.03481807 -0.17251986 0.0670275 -0.029014848
000260 cc 0e 1a 3b d3 7a df bd 57 3b 24 3e 81 54 c9 3c
       0.0023507355 -0.10912099 0.16038261 0.024576427
000270 1c 2b 0e 3e c6 e1 9a 3d 4a 90 f7 3d 23 ca 64 3d
       0.13883632 0.07562594 0.12088068 0.055856835
000280 22 f6 6b 3d ea 26 7f 3e 11 d7 f9 ba ba ef 8c 3c
       0.057607777 0.24917188 -0.0019061287 0.017204154
000290 77 1c 28 3e 86 53 2a 3d 95 a8 c9 bc 25 70 31 3e
       0.16417108 0.04158356 -0.024616519 0.17327936
0002a0 6d d9 4f be 65 f3 e8 3c dc 43 7d 3d d1 be d5 bc
       -0.20297785 0.028436372 0.061832294 -0.026091965
0002b0 05 3b 49 bd bc 7d a1 3e d3 a9 55 bd 23 f4 3a bd
       -0.04912855 0.3154124 -0.05216391 -0.045642983
0002c0 00 b0 ab bc f1 01 36 3e 98 19 7d bd 16 85 fd bc
       -0.020957947 0.17774178 -0.061791986 -0.03094725
0002d0 c7 3d ea 3e e1 61 4d be 6d 32 2a 3e a6 9e 08 be
       0.45750257 -0.20056869 0.16620798 -0.1334177
0002e0 f3 b0 05 be e4 ee fe 3d b5 5d d0 3d a8 01 e5 3d
       -0.13055782 0.124479085 0.10174123 0.111819565
0002f0 e6 73 4a bd 17 26 94 3d b4 cf 90 3e 3a 7d b0 3e
       -0.049426936 0.072338276 0.28283465 0.3447054
000300 cf 61 91 bd eb 58 65 be 6b 14 2e be 78 6d 6a 3e
       -0.07098734 -0.22397201 -0.16999976 0.22893322
000310 7e ad d7 3b 78 b9 51 3e 35 8a eb 3c ff 32 17 3e
       0.006581961 0.20480907 0.028752426 0.14765547
000320 96 09 c5 3d 06 08 52 3d cb af b2 3d 9e 2d 09 be
       0.09620969 0.051277183 0.08724936 -0.13396308
000330 4f 7b c6 bb 78 91 14 3e b8 15 5f 3d 3e 4c 90 3e
       -0.00605718 0.14508617 0.054464072 0.28183168
000340 3f c2 eb 3d 06 03 5f 3e d2 92 c3 bd a5 25 3d 3e
       0.11511659 0.21778497 -0.09549488 0.18471391
000350 d3 e3 94 3e 21 e0 1f be b1 b0 08 3e a3 e3 0f be
       0.29080066 -0.15612842 0.13348652 -0.1405168
000360 8e 17 ef bc 38 3e 38 3c 9e c5 45 3d 46 96 2e 3e
       -0.029186036 0.011245303 0.048284166 0.17049512
000370 6f db f3 3c 75 4d a4 3e c5 64 17 3c e0 a8 6d 3e
       0.02976772 0.32090345 0.009240334 0.23208952
000380 28 01 b7 bd f8 60 e3 3d 74 3d 59 bb 44 19 a9 3d
       -0.089357674 0.1110248 -0.0033148201 0.08256772
000390 9a ca 02 3d e9 3f 07 be cf 1b 62 be df 49 91 3b
       0.031931497 -0.13207974 -0.2208092 0.004433855
0003a0 33 75 0b ba f7 f8 49 3d e1 53 31 3d 31 3c 16 bd
       -0.0005319893 0.049309697 0.043292884 -0.036678497
0003b0 fd a7 52 3e 03 2f 45 3e c3 2f 46 be 82 da 31 3e
       0.20571895 0.19256215 -0.19354157 0.1736851
0003c0 6c 29 53 be a7 52 ec 3d cd cf 9d 3d 69 ec 36 3e
       -0.2062127 0.11539202 0.077056505 0.17863621
0003d0 05 73 da 3d 1e ad 97 3e 7a 07 2d be ca 9e ad bd
       0.106664695 0.29624265 -0.16897383 -0.08477552
0003e0 e7 e9 e2 3d 69 44 2a be 94 cf 32 3e dc 16 18 bc
       0.110797696 -0.16627659 0.17461997 -0.009282794
0003f0 a8 ac 49 be b9 4f d3 bb 6e 61 61 3d 79 33 be 3e
       -0.1969477 -0.0064487127 0.055024557 0.37148646

fc3.bias f4 [64]
000000 30 9a cd 3c a9 e5 d5 3d e6 d6 1a 3e 62 b1 84 3d
       0.025097936 0.10444195 0.1512104 0.064791456
000010 36 4f 35 3c e0 f6 69 bd 70 84 b9 3d 13 1b ad 3d
       0.011066249 -0.057120204 0.090584636 0.084524296
000020 0b 6f 8a 3d 5e 96 84 bb 84 cd a3 bb b8 43 2e 3d
       0.06759461 -0.0040462455 -0.0049988646 0.04254505
000030 a7 92 c7 3b d4 10 38 bd f2 00 c1 bc 60 4f 3b 3e
       0.0060904804 -0.044937924 -0.023560021 0.18291998
000040 ae 89 0f bd e9 c8 3e 3d 0a b1 78 3d f0 0e 8d bc
       -0.03504341 0.04657832 0.060715713 -0.017219037
000050 5b be 84 3c 87 00 ee 3d 1d fd 2d 3d de 49 a2 bc
       0.01620405 0.11621194 0.042477716 -0.019810613
000060 f4 04 02 bd 36 4d 0e 3e cc a8 ca 3c b9 38 3d bd
       -0.031743005 0.13896641 0.024738692 -0.046196673
000070 bf a3 f6 3d fd 96 2d 3d f6 10 9b bb 12 56 85 bd
       0.12042951 0.04238032 -0.0047322465 -0.06510557
000080 ca 31 ae 3d de 3a 33 bd 32 85 cd 3d 85 10 61 3d
       0.0850559 -0.043757312 0.100351706 0.054947395
000090 91 b3 82 bc 64 9d 41 3c a5 9a 94 bd f7 27 8e 3b
       -0.015954765 0.01181731 -0.072560586 0.0043382603
0000a0 50 49 78 3d da f0 ef 3d d9 3e 89 3c f5 83 e1 3d
       0.06061679 0.11715861 0.0167536 0.11011497
0000b0 0a a6 04 3e c3 f3 82 3c 29 7b b7 3d 55 47 82 3d
       0.12953964 0.015985375 0.08959038 0.06361262
0000c0 1f 52 30 3d dd 40 8b bd a0 96 0e 3d a1 0f 9c bd
       0.043047067 -0.06799481 0.034811616 -0.076201685
0000d0 98 09 d7 3d 5b bc fc 3c 79 68 8b 3d 8d c8 17 3c
       0.10499877 0.030851534 0.06807036 0.009264124
0000e0 d0 a5 e6 bd 7f b1 0d 3d 64 c0 08 3e b1 67 02 3e
       -0.11262095 0.0345931 0.13354641 0.12734868
0000f0 1c 02 a4 bc d9 0e 51 3c 3f 2c c0 3c bf e9 5e 3d
       -0.020020537 0.012759888 0.023458598 0.054422136

fc4.weight f4 [4, 64]
000000 1b 2c be bb 7c 1d 3d 3e e0 78 2d 3d 1e 92 ae 3d
       -0.0058035976 0.18468279 0.042351604 0.085239634
000010 f7 47 00 be f2 b8 97 3e 9c 4b 78 be 8f 13 a5 be
       -0.12527452 0.2963329 -0.24247593 -0.32241485
000020 e4 2e 78 be 0f e8 6e 3e da 1b 02 3e f7 62 f9 3e
       -0.24236637 0.23330711 0.12705937 0.48708317
000030 8b 87 b0 3d f6 0c 89 3c 3c 75 13 be c3 0b 14 3e
       0.08619603 0.016729813 -0.1440019 0.14457612
000040 bd 11 1f be e6 3b 42 be be 84 59 3e 28 f6 e8 be
       -0.1553411 -0.18968162 0.21242043 -0.45500302
000050 a1 17 22 be bb d6 81 be 35 14 51 bd d9 05 2e be
       -0.15829326 -0.2535914 -0.05104466 -0.16994418
000060 b3 1a f9 bd 08 af a5 be 94 55 38 3e ca 23 0c be
       -0.121632956 -0.323601 0.18001395 -0.13685527
000070 89 63 4a 3e d2 59 32 3d 71 12 d5 bc 73 e9 61 3e
       0.19764532 0.04354269 -0.02600977 0.2206171
000080 9f 62 7a be df 91 98 3d d5 0c c0 3d cf dc 8a be
       -0.24451683 0.07449698 0.093774475 -0.2712159
000090 fa 63 56 3d e5 2e a0 3e 8b 73 64 3e 2c f6 4a 3e
       0.05234144 0.31285778 0.22309701 0.1982047
0000a0 60 01 33 3e 4c 8f d0 3e 87 65 61 3e 9a 82 38 be
       0.17480993 0.40734327 0.22011386 -0.1801857
0000b0 82 b7 11 be a1 f2 7e 3d e1 57 26 be 20 82 37 be
       -0.14230159 0.062243108 -0.1624446 -0.17920732
0000c0 c6 49 32 3e 55 a9 cb 3c c6 f3 f0 3d da 99 59 3e
       0.17410955 0.024861017 0.11765246 0.21250096
0000d0 d6 d7 80 3e 0f 6b ca bd 6e 2e c1 bd 40 82 8d be
       0.2516467 -0.09883701 -0.09432684 -0.27638435
0000e0 9e 55 8a bc 6a 55 2d bd 8c 9d 27 3e e3 dc ee 3d
       -0.016886529 -0.042317785 0.16368693 0.116632245
0000f0 e4 99 aa bd 55 2f 50 3e 8f 29 94 be 1e 59 a4 3e
       -0.083301336 0.20330556 -0.28937957 0.3209924
000100 50 f8 7a be eb 45 a5 3e 28 b5 a9 3e a2 ea 64 3e
       -0.24508786 0.32279906 0.33146024 0.2235513
000110 07 67 b4 be a2 3e 83 be c5 55 c8 3e fe c1 00 bd
       -0.35234854 -0.25633723 0.39127937 -0.031435005
000120 45 f6 b5 3b 35 a1 c6 3d 8f eb c7 bc c0 ca 87 bd
       0.0055530393 0.096987166 -0.024404315 -0.06630468
000130 48 00 96 be 26 c3 51 3e 52 c7 42 be e5 0a 8c 3e
       -0.2929709 0.204846 -0.19021347 0.27352062
000140 48 35 96 be 02 de 27 3e 4a f9 de bd 48 75 8a bd
       -0.29337525 0.16393283 -0.10887392 -0.06760651
000150 d2 8b 9f bd 34 9c fd 3d 9a 8f 2d 3d 38 67 97 3d
       -0.077903405 0.12383309 0.042373277 0.07392734
000160 da b1 a2 bd 74 7a da 3d 22 5c f2 3d 07 e1 0c be
       -0.07944079 0.10667887 0.11833979 -0.13757716
000170 31 57 b3 3d b9 06 66 be ab f4 c5 bd 41 07 99 bd
       0.08756865 -0.22463502 -0.09665807 -0.07472087
000180 f6 b8 92 3d 11 45 62 be 62 c2 79 3e 4c 20 92 be
       0.07164185 -0.22096659 0.24390557 -0.28540266
000190 29 45 45 be f1 35 47 be 03 9c 11 bf be 77 46 be
       -0.19264664 -0.19454171 -0.5687868 -0.19381616
0001a0 08 d5 12 3d ca b3 c0 3b 2b 59 88 bd a2 95 33 bd
       0.035847694 0.0058808075 -0.066576324 -0.043843873
0001b0 49 13 d5 3e a5 89 bb 3d 27 73 6e 3d 72 c6 6c be
       0.41616276 0.09157113 0.058215287 -0.23122576
0001c0 1f 35 48 3e f1 44 ed bc 6b c7 8e 3e 95 35 b4 be
       0.19551514 -0.028963538 0.2788652 -0.3519713
0001d0 89 0a b7 be 85 36 68 3e ad 4b 95 3e de b9 96 3d
       -0.35750225 0.22677048 0.291593 0.0735967
0001e0 34 11 2e 3e 39 55 c2 be 8e 5b 3e 3e 17 42 80 3e
       0.1699875 -0.37955645 0.18589613 0.25050423
0001f0 4a 15 d1 be cd 3e d2 3d 6a 5f 5f be 5a f4 e5 3d
       -0.40836555 0.102658845 -0.21813741 0.11228247
000200 6a e0 81 3e 08 b1 6f bd e7 b6 7e 3e f3 88 7f be
       0.25366527 -0.05851844 0.24874459 -0.24954586
000210 70 7b ed 3c 42 3b 79 bd bf 9c 8f 3c d4 62 6e 3e
       0.028989524 -0.06084753 0.017530797 0.23279887
000220 d7 cb bd bd 70 48 23 3e 1b f6 16 3e d9 f5 4d 3d
       -0.09267395 0.15945601 0.1474232 0.050283287
000230 69 5d 39 be 1c 3b b8 3d 53 ec ad be 2d eb 3b 3d
       -0.1810204 0.08995649 -0.33969364 0.045878578
000240 ca c3 3e be b5 c2 60 be 4a 35 39 be 5a 85 f0 be
       -0.18629375 -0.21949275 -0.18086734 -0.4697674
000250 3d d2 6a 3e 39 c1 32 3d 7e bf dc 3e 80 c1 0a 3c
       0.22931762 0.043641303 0.43114847 0.008468986
000260 0c 20 42 3e 84 e1 ff bd f5 7f fe 3c 48 26 1f 3d
       0.18957537 -0.124941856 0.031066874 0.038854867
000270 15 92 52 be e3 03 41 3d c7 b7 52 3e 0d fb fe bd
       -0.20563538 0.047122847 0.20577918 -0.12450228
000280 37 94 02 be 4e 74 d1 3d 7d 98 03 be 06 9e 29 be
       -0.12751852 0.102272615 -0.12851138 -0.16564187
000290 a3 9e 91 3e 18 37 d0 be 24 24 b7 be c4 eb 6b 3e
       0.28441343 -0.40667033 -0.3576976 0.23039156
0002a0 72 f1 02 be 98 35 3d be 28 88 e0 3d 1d 5c 33 3e
       -0.12787417 -0.18477476 0.1096347 0.17515607
0002b0 f1 ef 47 bc 3a fb 12 bf 17 17 56 3e d5 43 d2 3c
       -0.012203203 -0.5741459 0.20907246 0.02566711
0002c0 00 62 1e 3e 9c 5e 0b bf af 1f 8b be 2c 87 09 3e
       0.15467072 -0.5444124 -0.2717261 0.1343047
0002d0 1a 8d 6c be 5d ec c5 bd 30 23 96 bd 24 0a 76 be
       -0.23100701 -0.09664223 -0.0733093 -0.24027306
0002e0 9e 3c 1e 3e 3d cf 0e 3d dd b5 d8 3d 5f 85 df 3c
       0.15452811 0.034865607 0.10581563 0.027285276
0002f0 60 13 b9 bd ca dd b4 3d eb e5 0e b9 7b 5c 0b be
       -0.090368986 0.088313654 -0.00013627826 -0.13609497
000300 69 49 44 bd 25 e1 3d bd fe 40 61 be df dd 52 be
       -0.047921572 -0.046357293 -0.21997449 -0.2059245
000310 55 21 03 be 24 26 c5 bd 29 6c d4 3d f1 95 35 3c
       -0.12805684 -0.09626415 0.103721924 0.011083112
000320 0d 9c 1a be dc 2b fa bd f9 76 50 3d 9c 47 3f 3c
       -0.15098591 -0.12215397 0.05089471 0.011674788
000330 01 dc 06 3e a4 45 86 3e 63 da 5d 3b 8d 35 06 be
       0.13169862 0.26225007 0.0033852092 -0.13106366
000340 59 09 38 3e 6a 82 29 bd 15 1d 4c 3c 65 17 19 bd
       0.17972316 -0.04138414 0.012458106 -0.037375826
000350 84 d4 6a be b1 36 53 3d 50 a7 b4 bd eb a1 a4 be
       -0.22932631 0.05156583 -0.08820975 -0.32154784
000360 af 83 ce 3d 53 0f 92 bd be fb 48 3e 7a 53 86 3e
       0.100837104 -0.07131829 0.19627282 0.26235563
000370 21 37 35 bd 47 58 0c be d3 a2 6f 3e e9 55 1c 3e
       -0.04424203 -0.1370555 0.23401956 0.15267147
000380 88 21 00 3c c7 d0 71 be 5e 55 8e 3e 3d f1 bc be
       0.0078204945 -0.23614798 0.27799505 -0.369028
000390 7d ca 34 3e c5 e8 f6 be bf a3 92 3e 2f bd 82 3e
       0.17655368 -0.48224464 0.28640553 0.2553496
0003a0 65 22 80 3e cc 3a 67 3e 0b 25 96 3d 27 9b 6a be
       0.2502624 0.22581023 0.07331284 -0.22910748
0003b0 c1 f9 df 3c 03 b7 ea 3d 4d 94 89 3e 6c 29 81 be
       0.027340772 0.11460688 0.26870957 -0.25226915
0003c0 c1 f3 10 3d 41 cf d0 bd 55 e0 51 3d 68 14 d4 bb
       0.03538871 -0.101957805 0.05123933 -0.006472159
0003d0 62 4d 3e be 0a 6c 5b 3e 95 5a 81 be ce 0d 21 3e
       -0.18584207 0.21427932 -0.2526442 0.15727922
0003e0 e2 37 e1 3e 07 74 ac be 0c 74 43 be 16 0f 50 3e
       0.43987948 -0.33682272 -0.19087237 0.20318255
0003f0 59 05 6e 3d 75 da cd 3d 7a 70 68 3e 69 ea 6e 3d
       0.05811057 0.10051433 0.22699156 0.05832902

fc4.bias f4 [4]
000000 07 4b d9 3c 48 11 53 3c cb 25 ae 3c cb f3 eb bd
       0.026525034 0.012882538 0.021258255 -0.11521109

bn1.weight f4 [128]
000000 84 e6 c1 3e 39 42 6d 3e fc e1 58 3f 7c e6 6d 3f
       0.37871182 0.23169793 0.84719825 0.92929816
000010 90 dc 25 3f 74 c1 44 3f 0e c4 e3 3e 20 d5 79 3f
       0.64789677 0.76857686 0.44485515 0.9759083
000020 97 f4 5c 3f c2 be 45 3f 44 5d 84 3f b3 71 1b 3f
       0.86310714 0.772442 1.0340962 0.60720366
000030 b7 3f 4a 3e 8b 1f 89 3e 28 16 0d 3f a4 64 4e 3f
       0.19750868 0.26781878 0.5511193 0.80622315
000040 45 3b 5f 3f b0 d3 4f 3f 86 0f 0a 3f fa 45 42 3f
       0.87199813 0.81182384 0.53929937 0.75888026
000050 ab b1 89 3f 62 63 62 3f 60 38 79 3f 6f 51 09 3f
       1.0757345 0.88432896 0.97351646 0.5363988
000060 cd 5a 11 3f f9 70 f2 3e cc e5 5d 3f f6 69 46 3f
       0.56779176 0.47351816 0.8667877 0.77505434
000070 a1 77 8a 3f c8 3a 99 3f f3 9f 2b 3f 18 72 0a 3f
       1.0817758 1.1971064 0.6704094 0.54080343
000080 72 5c 61 3e ba f0 5b 3f 2b 1d b8 3e 3c 18 46 3f
       0.22007921 0.85914195 0.35959753 0.7738073
000090 c2 98 5d 3f ac 0b 2e 3f ad d8 70 3f 93 14 ac 3e
       0.86561215 0.6798656 0.9408062 0.33609447
0000a0 76 fc 8f 3e 48 24 6f 3f 88 0d 2a 3f dd 07 c1 3e
       0.281223 0.93414736 0.664269 0.37701312
0000b0 68 be bc 3e 7b da 28 3f a8 c2 57 3f e4 09 70 3f
       0.36864018 0.65958375 0.84281397 0.9376509
0000c0 5d 74 07 3f 28 2c 5d 3f a6 9a 25 3f d7 11 26 3f
       0.5291193 0.863955 0.646891 0.6487097
0000d0 ab f0 b8 3e 3d a8 1a 3f 9c 99 41 3f e8 9b 5a 3f
       0.36121115 0.6041296 0.75625014 0.85394144
0000e0 f1 20 6d 3f 24 67 ac 3e 37 e1 2d 3f 9c b1 15 3f
       0.9262839 0.3367244 0.67921776 0.58474135
0000f0 5f b9 f1 3e 81 51 46 3f c5 93 55 3f fd b9 1a 3f
       0.4721174 0.77468115 0.83428603 0.60440046
000100 14 95 19 3e b8 d0 ab 3e 6e 35 cf 3e 82 0c 38 3f
       0.14998275 0.33557677 0.4047045 0.71894085
000110 37 ba 83 3f 85 1e 1f 3f 9a 25 d2 3e be 82 f7 3e
       1.0291203 0.62155944 0.41044313 0.48341936
000120 82 d8 63 3f ed cf 9e 3e 2a 95 07 3f 37 76 22 3f
       0.8900224 0.3101801 0.5296198 0.6346163
000130 05 6c 64 3f e3 6f 48 3f b6 32 cb 3e 83 3b 94 3e
       0.89227325 0.78295726 0.39687127 0.28951654
000140 cc 94 c0 3e 6f 71 ce 3e 27 1b 32 3f 2d ab 1f 3f
       0.37613523 0.40320918 0.6957268 0.6237057
000150 09 8c 4b 3f 4a fc 50 3f 9a 60 2b 3f ae 75 21 3f
       0.7951055 0.8163496 0.6694428 0.6307019
000160 d1 0d 3b 3f 50 0d 8d 3f 02 77 c2 3e 43 3f 33 3f
       0.7306796 1.1019688 0.3798142 0.70018405
000170 22 6a 07 3f a4 fb 63 3f 9d 52 a0 3e ef c3 93 3f
       0.5289632 0.8905585 0.3131303 1.1544169
000180 f0 07 2a 3f 0f a4 d2 3e c6 fa 78 3f 09 b4 ec 3e
       0.6641836 0.41140792 0.9725765 0.46231106
000190 cf 6a 09 3f a9 a3 2e 3f a0 90 7c 3f 9d 2f 34 3f
       0.536786 0.68218476 0.9865818 0.7038515
0001a0 10 e1 b6 3e 07 f6 1d 3f ec fe 36 3f 97 ff a7 3e
       0.35718584 0.6170353 0.7148273 0.32812187
0001b0 0c b0 c0 3e ad 6c c1 3e f0 88 db 3e 8d 25 1d 3f
       0.37634313 0.37778226 0.42877913 0.6138542
0001c0 b8 4f 65 3f 53 b6 31 3f f4 6f e0 3e 3b 7d 85 3f
       0.89574766 0.6941883 0.43835413 1.0428842
0001d0 03 63 52 3f 85 41 84 3f f1 57 67 3f 20 e3 4d 3f
       0.8218233 1.0332495 0.9036856 0.8042469
0001e0 b6 ac 3c 3f 70 ff 81 3f b7 a8 2c 3f 15 2d 42 3f
       0.73701036 1.0156078 0.6744494 0.7585004
0001f0 ca eb 16 3f 01 b2 4b 3f 9a 78 06 3f 60 25 7f 3f
       0.58953536 0.7956849 0.52527773 0.99666405

bn1.bias f4 [128]
000000 1b 88 ae 3d 38 f8 96 3d 52 61 a5 3c f7 da 81 bd
       0.08522054 0.07371563 0.020188008 -0.06340592
000010 eb b3 92 3d b9 69 b6 3d 76 53 d1 3b 6c 8c cd bd
       0.07163223 0.08906884 0.006388123 -0.10036549
000020 bb b8 ce 3d c2 52 79 bd ca 9b c8 3c 95 0b 5a 3d
       0.10093828 -0.06086994 0.024488349 0.0532337
000030 e6 f6 d9 bb 23 ff 4a bc 3e f1 09 bd 95 b4 ab 3d
       -0.006651747 -0.012389931 -0.033677332 0.08384053
000040 dc 11 9a bc 32 98 46 3d 9d 52 6b 3d 8f 2b 8d 3d
       -0.018807344 0.04848499 0.057451833 0.06893074
000050 4f 28 15 3e 15 07 ae 3b e2 cd e2 3d 81 a9 9b 3d
       0.14566158 0.005310903 0.11074425 0.0760069
000060 05 99 63 bd 30 02 48 3a 04 df 05 3d e9 0f 99 3d
       -0.055565853 0.00076297205 0.032683387 0.07473738
000070 f5 e7 77 3d 94 60 b1 3d e6 e9 3d bd 6a 97 0c be
       0.060523946 0.08660999 -0.04636564 -0.13729635
000080 03 94 25 3c 15 77 ad 3d 89 18 ab bc 5d 4a f3 bc
       0.0101060895 0.08469979 -0.020885723 -0.029698545
000090 7f 65 06 3c 07 aa 0e 3e f3 d7 8a bb 5a 08 21 bd
       0.0082029095 0.13932048 -0.004237169 -0.039314605
0000a0 a4 dc c0 3c 1a 2d f8 3d 6b 51 ff 3c 2f 5c 49 3d
       0.02354271 0.121179774 0.031166753 0.04916018
0000b0 db 72 df 3b 94 10 df 3b 0d c6 8a 3d 9b 6f f9 3d
       0.0068191118 0.006807396 0.067760564 0.1217949
0000c0 92 e9 cd 3c de f0 36 bd c0 4b 0e 3e 81 ba 0b be
       0.025135789 -0.044663303 0.13896084 -0.13645364
0000d0 66 21 a9 bc 7b cc 29 3e 7d 01 00 3e 25 99 07 3c
       -0.020645808 0.1658191 0.12500568 0.008276259
0000e0 84 c2 66 3d 14 9e 71 bd 48 71 be 3d 91 67 8f 3d
       0.05633785 -0.058988646 0.092989504 0.070021756
0000f0 f7 88 1b 3e f9 43 77 3d e0 8f 01 3c 75 e8 b8 3c
       0.15188967 0.06036756 0.007907838 0.022571782
000100 d8 4f 57 bd d6 8b 61 bd 57 56 a3 3d 40 5a 59 3c
       -0.05256638 -0.055065 0.079754524 0.013266146
000110 b7 1f c3 3d 6a 81 ed 39 a8 e1 00 3d 3f 42 58 bd
       0.095275335 0.00045300584 0.031465203 -0.052797552
000120 3c f4 91 3d c0 ad 55 b9 4e a0 93 3d 1c 24 e6 bd
       0.07126662 -0.0002037799 0.0720831 -0.11237356
000130 ac c2 a1 3d af 68 29 3d 19 4b 96 3d cf c5 06 be
       0.07898459 0.0413596 0.073385425 -0.13161395
000140 e3 e0 dc 3c a4 87 82 3d 96 6c 29 bc 2f e2 4f bc
       0.026962703 0.06373528 -0.01034083 -0.012688204
000150 eb 6f 19 3b 6c b6 ac bc f4 4f 38 bc 57 77 ad 3d
       0.0023412656 -0.02108308 -0.011249531 0.08470028
000160 fe 0c ad bd eb e8 53 bd d2 83 36 3e 74 17 83 3d
       -0.08449744 -0.0517358 0.17823723 0.06400958
000170 00 67 5b 36 f3 de ca bd 4d 9f 89 bc 3a 10 5c 3c
       3.2693497e-06 -0.099058054 -0.016799593 0.013431603
000180 ef a4 87 3d 02 de 61 3d ec 65 a3 3c 63 10 2c 3e
       0.066232555 0.055143364 0.019946061 0.16803126
000190 ec bc ef ba 77 af 6f bd cf 12 e6 3c 6c 27 aa bd
       -0.0018290556 -0.058516946 0.02808514 -0.083083004
0001a0 b8 fc d9 ba 90 06 a9 3c 9e 3f 37 bd 9a 1b 0e 3e
       -0.0016631102 0.020633012 -0.044738404 0.13877717
0001b0 43 0e 8c bd ad 0d 97 bc f6 ae 9c 3d 37 a6 4d bc
       -0.06838658 -0.018439138 0.07650559 -0.012551836
0001c0 28 cf d9 3d de 06 48 3d 51 46 49 3d 47 64 27 3e
       0.10635215 0.048834674 0.049139325 0.16346847
0001d0 e7 8f 4e bb 6d ea 78 3d 79 43 88 3d 49 c1 87 3d
       -0.0031518878 0.06077044 0.066534944 0.06628663
0001e0 f6 ff 8a 3c da 23 96 3c 21 36 6d bc be 20 69 bd
       0.016967755 0.018327642 -0.014478237 -0.05691599
0001f0 f8 51 4a 3d 99 a3 da 3d b4 74 8e 3d b7 33 16 3c
       0.049394578 0.10675735 0.06955853 0.009167603

bn1.running_mean f4 [128]
000000 2e b6 6c 3e de 54 cc 3d a8 15 83 3f ae 14 0c c0
       0.23116371 0.09977125 1.0240984 -2.1887622
000010 01 52 1e 3f c8 94 25 3f 51 e6 17 bf 20 ac b5 3f
       0.6184388 0.6468015 -0.5933581 1.4193153
000020 b6 3f ba be 6c 1b 16 bf ab 06 ed bd 7a e2 a0 bf
       -0.36376733 -0.5863559 -0.115735374 -1.2569115
000030 1e ce 05 3f 4a e9 f4 3c 40 e8 00 40 76 e7 ab be
       0.52267635 0.029896397 2.0141754 -0.33575028
000040 34 16 d9 3e b0 a3 aa 3e e0 ea 3d bf eb ad 06 40
       0.42399752 0.3332801 -0.74186516 2.104365
000050 f2 fa 74 3d db 7c 52 bd be 11 43 3e 57 fb a0 bf
       0.059809633 -0.051388603 0.19049737 -1.2576703
000060 80 c3 e9 be 64 d4 7f bd f8 ab b2 3f 35 c3 4c be
       -0.45656967 -0.06245841 1.3958731 -0.1999634
000070 4a 3c 31 3f eb 57 b2 3b 7e 63 a6 bf 58 00 b6 3f
       0.6923262 0.0054426095 -1.2999113 1.4218855
000080 22 ef 62 3d 36 85 82 bf 03 13 8e be bc d4 5b be
       0.055403836 -1.0196903 -0.2774888 -0.2146787
000090 52 c7 67 3c 5f 77 8e 3e 58 6c 9b be b9 c6 a3 3f
       0.014146643 0.27825448 -0.30356097 1.279502
0000a0 d1 ee dc bd ac a7 43 bf 26 d7 a0 be ab c3 ea 3d
       -0.10787738 -0.7642772 -0.31414145 0.11463102
0000b0 83 40 12 be e8 b4 b6 be 56 62 79 bf 0c f3 04 bf
       -0.14282422 -0.35684896 -0.97415674 -0.5193336
0000c0 f4 0c 73 be 24 ea a4 3f ac c7 c0 3e 0c c8 38 bf
       -0.2373541 1.2883954 0.37652338 -0.7218025
0000d0 3e 2b b9 be f4 9f d3 3e 35 36 2c 3f 48 4e 48 bf
       -0.36165804 0.41332972 0.67270213 -0.7824445
0000e0 88 7a 90 be 0e de 92 3e 20 7a 78 be a9 79 cc be
       -0.28218484 0.2868504 -0.24265337 -0.3993657
0000f0 87 b4 ae bd df 34 00 3c e2 b9 35 3f 90 79 9c 3f
       -0.085305266 0.007825105 0.7098676 1.2224598
000100 e2 c3 a8 bf fb 85 66 bf f3 eb b1 be 40 bb e8 3e
       -1.3184779 -0.9004819 -0.34750327 0.4545536
000110 cd 49 26 3e bb 91 71 bf 56 00 7a 3f 4a f5 a0 be
       0.1623909 -0.9436299 0.9765676 -0.3143714
000120 8a 66 81 3f d3 ad 47 bf 24 eb 42 bf c1 cc c9 bf
       1.0109417 -0.7799961 -0.76140046 -1.5765611
000130 d8 6b bb 3e f9 8a c3 3e c4 cb 94 3f f4 b8 94 3f
       0.36605716 0.38191965 1.1624684 1.1618943
000140 c6 b8 71 3f 57 e0 84 3e b1 e3 05 bf 1d 30 d1 be
       0.94422567 0.25952408 -0.52300555 -0.4085702
000150 1d d3 fa 3e d4 ab ee be 2b f1 2e bf 0d d1 70 3e
       0.48989192 -0.4661547 -0.68336743 0.23517247
000160 a3 23 10 3f 30 37 79 bf 9c 1b 18 bd dc 92 26 3f
       0.5630438 -0.97349834 -0.037135705 0.6506784
000170 9a 39 0c 3f a1 bd ce 3e 35 8c c7 be 9a 28 46 bd
       0.54775393 0.4037905 -0.38974157 -0.048378564
000180 e7 19 05 3e b0 64 bc bc 30 4f 7d 3f 82 54 ba be
       0.12998162 -0.02299723 0.98948956 -0.363926
000190 51 e3 de 3f c2 02 95 3e 1d ce d5 3e 1a 86 0a bf
       1.7413121 0.29103667 0.41758814 -0.5411087
0001a0 4a c1 fa 3e 1a f7 a5 be 3a 1c cd 3e 3e 1f e9 bb
       0.48975593 -0.32415086 0.40060598 -0.00711432
0001b0 37 6a 63 bf cd 08 ca 3e a3 9e 71 bf 6b 9e 15 3f
       -0.88833946 0.3945984 -0.94382685 0.5844485
0001c0 ea 56 08 bd 0a 6d a9 3e ec a3 57 3e 2c 2a a2 be
       -0.033286013 0.33091003 0.21058625 -0.316728
0001d0 cc dd f1 3e 4c d0 18 be f6 64 b1 3f bb a5 53 bf
       0.4723953 -0.14923209 1.3858936 -0.8267476
0001e0 b0 71 e4 3d 72 21 84 be bb ec 95 bf 8b c1 3a bf
       0.11154497 -0.25806767 -1.171287 -0.72951573
0001f0 05 30 a3 be ec 11 46 3f 42 9b a8 3e b9 49 36 3f
       -0.31872573 0.77371097 0.32930952 0.7120624
