vanilla.pt (torch_old, 121237 bytes, 12 tensors)

fc1.weight f4 [128, 33]
-0.2563758 0.2596643 -0.045672793 -0.011148674 -0.17494702 0.024834942 0.10444769 0.008291321
-0.08453664 0.020212693 -0.14074269 0.113388784 -0.0230284 -0.010808024 -0.06362 0.14270124
0.11378617 0.1583602 -0.101580866 -0.0018979941 0.03915377 0.1417563 -0.113543175 0.07985273
-0.008906482 -0.019310744 0.1766184 -0.16149168 -0.0695947 -0.044070408 -0.06785213 0.15040323
-0.10927842 -0.084974796 -0.07338335 -0.23783793 -0.0915686 0.039330505 0.059584178 0.06298346
0.006648007 -0.22438289 -0.02131712 -0.067949645 -0.040589213 -0.009982037 0.18711318 0.06321604
-0.06107236 -0.052128054 0.06307265 0.18426874 -0.0887694 -0.010918726 0.15219767 0.008479494
0.124782644 -0.044066917 0.04044 -0.18577278 0.07879305 0.13097997 -0.103115335 0.05256196
0.09556377 -0.11588237 0.16548467 -0.08868242 -0.066466324 0.043925233 -0.041414954 0.007549942
-0.031869892 0.07925324 0.113427185 0.15423666 -0.03541606 0.0079908315 0.01540595 -0.17410333
0.007919251 0.15397686 0.012294136 -0.006209958 -0.06266231 -0.021981739 0.006446025 0.0035982572
0.0047784043 -0.06678597 0.0036697204 0.027089356 0.08558234 0.06512233 -0.13775769 -0.11292364
0.08688683 0.036434695 -0.55156374 -0.2109842 0.25422615 0.2204888 0.017057873 -0.1229671
-0.08543376 0.07229748 -0.056828864 -0.17153238 -0.031662334 0.007902655 0.012008456 0.035407312
-0.14889683 0.14547385 0.16528688 -0.22023852 -0.038233254 -0.06705094 0.027167987 0.00017935227
0.060584236 0.026807182 -0.09553844 -0.055949263 -0.090723164 -0.01643351 -0.043605153 -0.0035175155
-0.060898177 -0.14265099 -0.037028953 0.25183868 -0.18737304 -0.07656117 0.13959336 0.064952135
0.005922127 -0.12082264 0.01279601 0.14142196 0.11535271 -0.034400802 0.054524988 0.00909285
-0.036381144 -0.1885493 0.06320988 -0.03504386 -0.13369972 -0.062539324 -0.15935138 -0.15503773
0.007021126 0.022075461 -0.0019388271 -0.18623483 0.12621008 -0.025228849 -0.057011064 -0.07056762
-0.048798677 -0.034178883 -0.15622343 -0.15030524 0.39563566 0.040011015 -0.29363704 0.0066025495
-0.028924584 0.036446225 0.13870749 -0.09732372 0.02444509 0.060297914 -0.040412683 0.066567555
-0.09029737 0.036276914 -0.0035142237 -0.0883943 0.11253651 -0.06823472 0.04245931 0.065216705
0.014729395 0.0541541 -0.015155694 -0.034909975 -0.07069814 -0.02721934 0.22658369 0.14810786
-0.122803286 -0.03120272 -0.12271328 -0.09581432 -0.10143601 -0.10183552 -0.12814389 -0.09792198
0.06788644 0.08605314 -0.12537701 -0.16308603 -0.011740003 0.06901848 0.0820945 0.14350002
-0.010053784 -0.09625142 0.00069132977 0.16899773 -0.095417015 -0.07281287 0.010929181 0.065142006
-0.17033055 -0.05004584 -0.0028315207 -0.18008955 -0.022948058 0.047356512 -0.108356066 0.03325106
-0.14422706 0.08624318 -0.031668518 -0.049414426 -0.05841443 -0.02577871 0.13410947 0.27102342
0.18390243 0.11075258 0.03208396 -0.013721632 0.06297717 -0.25084916 -0.06474103 0.02600913
0.024440637 0.18983099 0.06950594 0.09490149 0.0009336588 -0.014689885 0.103976876 -0.05184244
-0.060331803 0.016964756 -0.053495165 -0.06387122 -0.060192075 -0.04675577 0.00096597994 0.046017684
00000000: b043 83be b8f2 843e 6513 3bbd eea8 36bc
00000010: 5025 33be a672 cb3c ace8 d53d 52d8 073c
00000020: 8c21 adbd 1795 a53c da1e 10be 6138 e83d
00000030: 0ea6 bcbc 2314 31bc 344b 82bd 4620 123e
00000040: b908 e93d 2d29 223e a109 d0bd 1dc6 f8ba
00000050: b45f 203d 9028 113e 5389 e8bd d489 a33d
00000060: 7eec 11bc 9131 9ebc 74db 343e 135e 25be
00000070: ab87 8ebd 2c83 34bd 0ff6 8abd 4e03 1a3e
00000080: 5dcd dfbd 4407 aebd 034a 96bd c98b 73be
00000090: 5188 bbbd 0619 213d 8a0e 743d 79fd 803d
000000a0: 86d7 d93b a1c4 65be 3ea1 aebc 2f29 8bbd
000000b0: e040 26bd b38b 23bc 999a 3f3e 6977 813d
000000c0: 0327 7abd 3a84 55bd 3c2c 813d f2b0 3c3e
000000d0: bbcc b5bd 75e4 32bc b5d9 1b3e 93ed 0a3c
000000e0: 0b8e ff3d 837f 34bd 6aa4 253d 383b 3ebe
000000f0: 405e a13d 9d1f 063e 222e d3bd 364b 573d
00000100: f0b6 c33d bc53 edbd d074 293e 219f b5bd
00000110: 7f1f 88bd f2ea 333d baa2 29bd 8165 f73b
00000120: 018a 02bd 864f a23d 834c e83d 37f0 1d3e
00000130: 6e10 11bd faeb 023c 3d69 7c3c 2548 32be
00000140: bfbf 013c 1cac 1d3e 586d 493c e77c cbbb
00000150: 1955 80bd 0c13 b4bc 2d39 d33b bdd0 6b3b
00000160: 2994 9c3b 15c7 88bd b17f 703b 7fea dd3c
00000170: cb45 af3d db5e 853d 5a10 0dbe 8244 e7bd
00000180: b9f1 b13d 8c3c 153d 4833 0dbf 3e0c 58be
00000190: ee29 823e d1c7 613e f4bc 8b3c 2dd6 fbbd
000001a0: e5f7 aebd b410 943d 62c5 68bd 2fa6 2fbe
000001b0: 5db0 01bd 237a 013c 1dbf 443c 4207 113d
000001c0: 6978 18be 19f7 143e f740 293e 3586 61be
000001d0: 799a 1cbd 0152 89bd 668f de3c 8210 3c39
000001e0: 2d27 783d bc9a db3c a8a9 c3bd 0e2b 65bd
000001f0: 11cd b9bd 929f 86bc 519b 32bd 1e86 66bb
00000200: 5e70 79bd 1a13 12be acab 17bd 00f1 803e
00000210: b8de 3fbe 1acc 9cbd 90f1 0e3e a005 853d
00000220: 670e c23b dc71 f7bd 5ba6 513c ebd0 103e
00000230: 0b3e ec3d dbe7 0cbd 9855 5f3d 2dfa 143c
00000240: 6504 15bd 1113 41be 2e74 813d 278a 0fbd
00000250: 94e8 08be 9e14 80bd 022d 23be 36c2 1ebe
00000260: 7911 e63b 99d7 b43c 3e20 feba 58b4 3ebe
00000270: 373d 013e bbac cebc 6f84 69bd c285 90bd
00000280: 1fe1 47bd 28ff 0bbd 09f9 1fbe 9ee9 19be
00000290: c290 ca3e 97e2 233d 9857 96be 335a d83b
000002a0: 40f3 ecbc a348 153d 5609 0e3e a951 c7bd
000002b0: 1241 c83c f2fa 763d c587 25bd 9254 883d
000002c0: d4ed b8bd 1a97 143d e44e 66bb 1208 b5bd
000002d0: 8b79 e63d a5be 8bbd d0e9 2d3d 5690 853d
000002e0: 8f53 713c b1d0 5d3d 974f 78bc c3fd 0ebd
000002f0: 30ca 90bd 18fb debc 8e05 683e 96a9 173e
00000300: 4a80 fbbd d99c ffbc 1a51 fbbd 4c3a c4bd
00000310: afbd cfbd 248f d0bd 2738 03be 528b c8bd
00000320: 0c08 8b3d a13c b03d d562 00be 0600 27be
00000330: 2459 40bc 9059 8d3d 2921 a83d abf1 123e
00000340: a0b8 24bc 771f c5bd 5b3a 353a be0d 2d3e
00000350: ff69 c3bd ea1e 95bd 4f10 333c 2c69 853d
00000360: 226b 2ebe defc 4cbd 0991 39bb 6569 38be
00000370: 91fd bbbc e7f8 413d c9e9 ddbd 4332 083d
00000380: 42b0 13be 44a0 b03d d9b6 01bd c866 4abd
00000390: f843 6fbd e02d d3bc fe53 093e 95c3 8a3e
000003a0: eb50 3c3e 40d2 e23d 786a 033d b2d0 60bc
000003b0: 2dfa 803d 4d6f 80be f296 84bd 1911 d53c
000003c0: bb37 c83c 0e63 423e 2159 8e3d b65b c23d
000003d0: c8c0 743a d8ad 70bc d4f1 d43d bd58 54bd
000003e0: 7b1e 77bd acf9 8a3c bf1d 5bbd eace 82bd
000003f0: f78b 76bd fa82 3fbd d139 7d3a 0a7d 3c3d

fc1.bias f4 [128]
0.07678779 0.13845918 0.16608553 0.14989455 -0.095871225 0.03984634 -0.109314784 0.0038089668
0.1438194 0.08573765 -0.16074915 -0.07505171 -0.14687611 0.081973985 -0.021922348 -0.12731439
-0.0555897 0.05713851 0.01607082 0.16333283 -0.002285261 0.05482564 -0.05269184 0.0207756
0.0062598605 0.14943859 0.07291739 -0.09922213 -0.15460387 -0.16593607 -0.06315988 0.022458717
0.16380726 -0.017093934 0.068028904 0.08858878 -0.1333642 -0.14400746 0.06593539 0.08115591
-0.081056684 0.027307738 -0.17035788 0.0021839042 0.04266413 0.0016704868 -0.027596034 0.07243815
-0.04762493 0.12957247 -0.14996596 -0.09949672 -0.14530534 -0.15746969 0.12901355 -0.042964906
-0.13673402 0.036106195 -0.13189402 0.009093587 0.08272883 -0.036821418 0.08953311 0.0357474
-0.1396866 0.03426951 0.11220704 -0.040290676 0.016458826 0.022228966 0.015002728 0.045260098
-0.16671112 0.13179988 0.075994335 0.021515237 0.0318507 -0.14035052 -0.04970216 -0.0075799976
0.041360233 -0.09549055 0.018432893 -0.054015696 0.12668502 -0.14941092 0.018207991 0.11797198
-0.13512538 -0.0049730036 0.08038396 0.070272714 0.02044898 0.07037568 -0.12130801 0.14505811
0.003931108 0.11248185 0.038483825 -0.019378271 0.074586205 0.16521662 0.17174223 -0.14653336
0.01050735 -0.12501363 0.10151847 0.12498811 -0.122248076 -0.010068812 0.12052824 0.11515715
-0.13105708 0.116612405 -0.030831903 -0.14806783 0.034771666 0.08117701 0.10437543 -0.11840844
-0.12608212 -0.11700121 0.09868554 -0.15214784 -0.0014716157 -0.0511628 0.07591801 0.034237552
00000000: eb42 9d3d 3ec8 0d3e 5312 2a3e f57d 193e
00000010: 2258 c4bd ea35 233d 6ee0 dfbd dc9f 793b
00000020: 6545 133e 3997 af3d 6d9b 24be b6b4 99bd
00000030: b166 16be fae1 a73d 7f96 b3bc b45e 02be
00000040: 06b2 63bd 120a 6a3d f4a6 833c b940 273e
00000050: 51c4 15bb da90 603d 66d3 57bd 9731 aa3c
00000060: 841f cd3b 6e06 193e b655 953d f934 cbbd
00000070: 7a50 1ebe 25eb 29be f859 81bd 58fb b73c
00000080: 17bd 273e 9408 8cbc bd52 8b3d 096e b53d
00000090: a090 08be b176 13be 2209 873d 1235 a63d
000000a0: 0c01 a6bd 7ab4 df3c 4c72 2ebe d51f 0f3b
000000b0: 95c0 2e3d 3cf4 da3a 1411 e2bc 745a 943d
000000c0: 5c12 43bd a5ae 043e ad90 19be f0c4 cbbd
000000d0: ecca 14be bc3f 21be 211c 043e f8fb 2fbd
000000e0: 0104 0cbe 17e4 133d 3a0f 07be 45fd 143c
000000f0: bc6d a93d 0ed2 16bd 235d b73d de6b 123d
00000100: 010a 0fbe 305e 0c3d cecc e53d d607 25bd
00000110: a9d4 863c 8519 b63c 01ce 753c a762 393d
00000120: 52b6 2abe 8cf6 063e eba2 9b3d b940 b03c
00000130: e175 023d 0cb8 0fbe 7e94 4bbd a161 f8bb
00000140: 5969 293d 8d90 c3bd 9400 973c 903f 5dbd
00000150: b8b9 013e 2dff 18be ed28 953c 4b9b f13d
00000160: 4f5e 0abe 94f4 a2bb 58a0 a43d 24eb 8f3d
00000170: 9f84 a73c 2021 903d 5570 f8bd 1d8a 143e
00000180: 86d0 803b e25c e63d 37a1 1d3d 2ebf 9ebc
00000190: a7c0 983d 8c2e 293e 32dd 2f3e d70c 16be
000001a0: 0527 2c3c 9303 00be eae8 cf3d c4f9 ff3d
000001b0: 335d fabd a9f7 24bc 83d7 f63d 83d7 eb3d
000001c0: d433 06be 7cd2 ee3d 3093 fcbc 189f 17be
000001d0: bc6c 0e3d 2240 a63d c9c2 d53d 2080 f2bd
000001e0: ac1b 01be 559e efbd a51b ca3d a5cc 1bbe
000001f0: 3be3 c0ba 1690 51bd e77a 9b3d ad3c 0c3d

fc2.weight f4 [128, 128]
-0.20672238 0.08418108 0.041619662 -0.015460142 0.017422086 0.05480382 -0.091898106 -0.048760317
0.11295412 0.055651914 0.09924234 -0.28543606 0.1877365 0.05278697 -0.05097223 -0.057480548
-0.21490838 -0.03261777 -0.011532825 0.088189974 0.08979236 -0.18841603 -0.064355165 -0.056699917
-0.10908985 0.123398766 0.077252276 0.08892979 0.0060476293 0.14712928 -0.0900439 -0.17459208
-0.15092255 -0.08891954 -0.0872428 -0.012469894 0.032711413 -0.016776845 -0.2457727 -0.036108185
-0.035430145 0.08243309 0.14630657 0.0065555074 -0.14854462 -0.0040815636 -0.049111757 0.15768903
0.06257629 -0.025394045 0.02863417 -0.028129863 -0.0288333 -0.01215402 0.0027735995 -0.30649638
-0.027341606 -0.08944079 0.19453803 0.0034271304 -0.16420983 0.032576196 0.09336263 0.1042483
0.034340646 0.105303004 0.05020656 0.12164246 -0.16863608 -0.15408811 0.24897857 -0.04226733
0.053557597 0.009611919 0.09992827 0.123739906 -0.056106254 0.0025028018 0.08460228 0.1615629
-0.02041874 -0.03926321 0.13233736 0.11499366 -0.09953322 0.027203549 0.09216072 0.014826839
0.06158059 0.076623134 -0.019466521 0.12551685 0.07559395 -0.015906394 -0.04823113 0.05586068
-0.074031934 -0.021052716 0.026822498 -0.09755693 -0.033221554 -0.0021471046 0.016736947 0.11794503
-0.032003485 0.06152608 -0.096972086 0.24340121 -0.0060802856 0.103111215 0.022689959 -0.1519691
-0.0095108 0.15188606 0.15490307 -0.21923709 0.15583777 0.1010546 -0.010387691 -0.059304915
0.01814228 0.092717335 0.15163451 -0.033586565 -0.1702856 0.006142587 0.062323913 -0.04285781
0.07260855 -0.035935752 -0.05684059 0.01643324 -0.07614685 0.022861958 0.041099597 -0.106536776
0.06916969 -0.094347894 0.11030533 0.009030314 0.16547006 -0.005808317 -0.075910725 0.002594137
-0.03613206 0.091262855 0.10650492 0.003951282 0.011361279 -0.068972774 0.08763174 0.015636316
0.003038018 -0.16605057 0.15394856 -0.036987726 -0.002062398 -0.07732651 0.15071185 0.21783306
0.1647496 -0.099598035 0.14420204 0.025578843 0.005772788 -0.039763365 -0.009091651 0.045578767
-0.0058186944 -0.015483307 0.08817819 0.045686424 0.2051252 0.012560922 -0.091049284 -0.03561454
-0.17611037 -0.045517836 -0.17700106 0.031208737 -0.12746817 0.13053049 -0.030864505 0.006949994
0.09854394 0.05858501 -0.09490607 -0.026356375 -0.095761344 -0.007808758 -0.14647856 -0.11377683
0.10874162 -0.036927927 -0.073884174 -0.12611555 0.028602077 0.05345331 -0.011530825 -0.027382717
-0.14912656 -0.13191526 0.07430966 0.047857113 -0.04778013 -0.08000475 -0.14813855 -0.14074214
-0.020239443 0.027940093 0.13091871 0.017748509 -0.08936682 0.03853714 0.083558194 0.18073636
0.0664781 -0.13289118 -0.022057863 -0.05069531 0.06366563 -0.06823317 0.022362372 0.061927762
0.02698584 -0.030051494 0.07840698 -0.08298882 0.08620312 -0.11023748 -0.0013239558 -0.06841913
-0.02052979 -0.0679779 0.05886111 -0.03760449 -0.13118511 -0.031256422 0.14056484 -0.011657845
-0.069891825 -0.09694571 0.034147646 0.14054143 -0.06085568 0.054868296 0.0015206577 0.0009654442
0.08096622 -0.0013164731 -0.04933665 0.023519805 0.15800491 0.15984677 -0.11779075 0.14407489
00000000: 08af 53be 2167 ac3d 6179 2a3d 894c 7dbc
00000010: c3b8 8e3c f879 603d 1335 bcbd e6b8 47bd
00000020: 7d54 e73d 43f3 633d 913f cb3d ad24 92be
00000030: ff3d 403e 2637 583d 42c8 50bd b970 6bbd
00000040: f110 5cbe 369a 05bd 2df4 3cbc f29c b43d
00000050: 0fe5 b73d 22f0 40be a4cc 83bd 2c3e 68bd
00000060: 806a dfbd 7eb8 fc3d 7136 9e3d d220 b63d
00000070: 312b c63b 0fa9 163e f068 b8bd 44c8 32be
00000080: 718b 1abe 731b b6bd 5aac b2bd 874e 4cbc
00000090: 67fc 053d 986f 89bc d7ab 7bbe 2de6 13bd
000000a0: 331f 11bd aed2 a83d 64d1 153e 95cf d63b
000000b0: 151c 18be a3be 85bb 6929 49bd 3c79 213e
000000c0: ff27 803d 2c07 d0bc 3592 ea3c 9970 e6bc
000000d0: d033 ecbc a821 47bc 47c5 353b 18ed 9cbe
000000e0: 81fb dfbc bc2c b7bd fa34 473e b599 603b
000000f0: 9f26 28be 9e6e 053d e834 bf3d 2280 d53d
00000100: c7a8 0c3d 1aa9 d73d 65a5 4d3d af1f f93d
00000110: f0ae 2cbe 46c9 1dbe 3df4 7e3e 8220 2dbd
00000120: 365f 5b3d 4f7b 1d3c 31a7 cc3d 596b fd3d
00000130: accf 65bd 0c06 243b f643 ad3d bf70 253e
00000140: 3445 a7bc 76d2 20bd 7283 073e cc81 eb3d
00000150: 13d8 cbbd fad9 de3c c2be bc3d 45ec 723c
00000160: ee3b 7c3d 97ec 9c3d 4178 9fbc 7d87 003e
00000170: 00d1 9a3d 204e 82bc 018e 45bd 2bce 643d
00000180: 0e9e 97bd bf76 acbc dbba db3c edcb c7bd
00000190: 5313 08bd 70b6 0cbb ec1b 893c 2a8d f13d
000001a0: 1616 03bd c502 7c3d 4d99 c6bd 2b3e 793e
000001b0: 223d c7bb f92b d33d 4be0 b93c ca9d 1bbe
000001c0: 30d3 1bbc 0588 1b3e e99e 1e3e b07f 60be
000001d0: f093 1f3e b7f5 ce3d 2231 2abc b6e9 72bd
000001e0: 1e9f 943c 96e2 bd3d 1446 1b3e 1192 09bd
000001f0: 595f 2ebe c147 c93b 5c47 7f3d ac8b 2fbd
00000200: cbb3 943d 5e31 13bd aed1 68bd 019f 863c
00000210: e1f2 9bbd 0049 bb3c 0d58 283d f42f dabd
00000220: d7a8 8d3d 7839 c1bd c3e7 e13d e2f3 133c
00000230: fc70 293e b253 bebb 1577 9bbd 6602 2a3b
00000240: 36ff 13bd 05e8 ba3d 401f da3d c179 813b
00000250: a824 3a3c 9941 8dbd 4578 b33d bb17 803c
00000260: 7c19 473b 2909 2abe b1a4 1d3e 7180 17bd
00000270: 4c29 07bb 5c5d 9ebd 3554 1a3e a10f 5f3e
00000280: 1fb4 283e 0efa cbbd b3a9 133e b98a d13c
00000290: a829 bd3b e9de 22bd 26f5 14bc cdb0 3a3d
000002a0: bfaa bebb b2ad 7dbc c496 b43d b021 3b3d
000002b0: 570c 523e 53cc 4d3c 0c78 babd 8de0 11bd
000002c0: 4756 34be e970 3abd c43f 35be 77a9 ff3c
000002d0: 0487 02be c9a9 053e 8fd7 fcbc c6bc e33b
000002e0: 68d1 c93d d6f6 6f3d 1d5e c2bd 53e9 d7bc
000002f0: 861e c4bd 9ce0 ffbb 7afe 15be d403 e9bd
00000300: edb3 de3d bd41 17bd 9650 97bd 6f24 01be
00000310: e74e ea3c dcf1 5a3d c9eb 3cbc b851 e0bc
00000320: a2b4 18be cb14 07be aa2f 983d d205 443d
00000330: 19b5 43bd 88d9 a3bd a2b1 17be b51e 10be
00000340: 30cd a5bc 9fe2 e43c 8e0f 063e 5265 913c
00000350: f405 b7bd 1fd9 1d3d 8f20 ab3d f412 393e
00000360: ac25 883d a014 08be b1b2 b4bc e3a5 4fbd
00000370: 2063 823d d5bd 8bbd 4b31 b73c f7a7 7d3d
00000380: 6911 dd3c 8d2e f6bc d793 a03d 0bf6 a9bd
00000390: 438b b03d 30c4 e1bd 9688 adba 541f 8cbd
000003a0: 172e a8bc ff37 8bbd 5918 713d 2a07 1abd
000003b0: 6455 06be bc06 00bd 3bf0 0f3e 8c00 3fbc
000003c0: 7223 8fbd 798b c6bd 67de 0b3d 18ea 0f3e
000003d0: ce43 79bd 94bd 603d ce50 c73a dd15 7d3a
000003e0: 9ed1 a53d 828d acba 3a15 4abd 9bac c03c
000003f0: 0acc 213e dfae 233e 473c f1bd 5e88 133e

fc2.bias f4 [128]
-0.06029745 0.02553239 0.024707127 0.031546816 0.10343074 0.046389807 0.06686184 -0.02542146
-0.08771377 0.028003652 0.03198266 0.13550511 -0.06681623 -0.11184935 -0.017874325 -0.014719102
0.051537134 -0.09900698 0.03713556 -0.0114245415 -0.07824108 -0.036955178 0.006591281 -0.062001053
0.063405 0.068005316 0.09106426 0.035620514 -0.10748594 0.07666931 0.10142082 -0.12264364
-0.028453154 -0.06296135 -0.0029381486 0.016365234 0.038280014 -0.07428555 0.03608398 0.05797728
-0.019303601 0.13321494 0.08619684 -0.045514923 0.06044055 -0.1671372 0.050889563 0.04301793
0.050024115 0.07125513 0.064453915 0.09848487 0.042360403 -0.07084848 0.0050302967 -0.08159718
0.10531064 0.07916482 -0.076324806 -0.05468258 0.06271623 0.0064931787 -0.0669426 -0.09036409
-0.08924925 0.006119646 -0.025870027 -0.03365366 -0.015099924 0.019875783 0.12702201 -0.06321284
-0.050792146 0.027197815 0.030134685 0.044150483 -0.051152285 0.075354464 -0.064050436 0.05017567
-0.053491797 -0.02022412 0.021442264 0.062492147 -0.02961024 -0.015340318 0.089292645 -0.07830348
0.12705341 0.050218083 -0.035927575 0.0008720779 0.014794613 0.07750419 0.013092778 -0.042724848
-0.017250586 -0.06878113 -0.08931945 0.01327845 0.019053236 -0.025378391 -0.03968954 0.026128428
0.09169391 0.030951641 0.00086326746 0.032333396 -0.057684842 0.034194194 0.057768542 0.01913339
-0.033883184 -0.015173677 -0.08698891 0.053217784 -0.036663335 -0.07927761 0.04160334 -0.06768088
0.06931988 0.03369437 0.030708877 -0.09230151 0.05191357 -0.0934187 0.044788234 0.039029542
00000000: 75fa 76bd 4e29 d13c 9a66 ca3c 3c37 013d
00000010: 7fd3 d33d 3d03 3e3d dcee 883d aa40 d0bc
00000020: 47a3 b3bd ea67 e53c 4000 033d dac1 0a3e
00000030: f3d6 88bd 4611 e5bd 2d6d 92bc 6328 71bc
00000040: 9a18 533d 2cc4 cabd 751b 183d 002e 3bbc
00000050: dc3c a0bd 505e 17bd acfb d73b d1f4 7dbd
00000060: 7bda 813d 5f46 8b3d e67f ba3d d1e6 113d
00000070: 9721 dcbd cd04 9d3d b8b5 cf3d 972c fbbd
00000080: 9716 e9bc e1f1 80bd f48d 40bb 6210 863c
00000090: 81cb 1c3d 0623 98bd cccc 133d 9679 6d3d
000000a0: 9622 9ebc 7f69 083e f887 b03d db6d 3abd
000000b0: 8390 773d 0426 2bbe 9371 503d 9233 303d
000000c0: 16e6 4c3d 36ee 913d 6a00 843d 6fb2 c93d
000000d0: 1a82 2d3d 0219 91bd 30d5 a43b 6c1c a7bd
000000e0: 1bad d73d 2a21 a23d 2e50 9cbd d7fa 5fbd
000000f0: 5e71 803d bbc4 d43b 3419 89bd cf10 b9bd
00000100: 50c8 b6bd 5087 c83b 61ed d3bc 6cd8 09bd
00000110: ac65 77bc 8ad2 a23c 0f12 023e bc75 81bd
00000120: 6d0b 50bd f4cd de3c 04dd f63c 23d7 343d
00000130: 0f85 51bd 7153 9a3d e02c 83bd 0185 4d3d
00000140: 371a 5bbd 0ead a5bc b0a7 af3c c4f7 7f3d
00000150: 2d91 f2bc f555 7bbc 10df b63d 935d a0bd
00000160: 4a1a 023e 7ab1 4d3d cb28 13bd 289c 643a
00000170: 1b65 723c 84ba 9e3d 1783 563c 4000 2fbd
00000180: 1a51 8dbc 1fdd 8cbd 1eed b6bd db8d 593c
00000190: 8815 9c3c 58e6 cfbc 8091 22bd 490b d63c
000001a0: 04ca bb3d 4c8e fd3c e64c 623a 0670 043d
000001b0: f146 6cbd 360f 0c3d b59e 6c3d a1bd 9c3c
000001c0: 18c9 0abd 049b 78bc 3e27 b2bd e4fa 593d
000001d0: 4b2c 16bd 4d5c a2bd 4468 2a3d 469c 8abd
000001e0: 95f7 8d3d 1c03 0a3d 2f91 fb3c 9308 bdbd
000001f0: 53a3 543d 4e52 bfbd de73 373d 71dd 1f3d

fc3.weight f4 [64, 128]
0.20108482 -0.121292524 -0.08177924 -0.12072326 0.05000049 -0.24765919 0.122554034 0.07798416
0.008389351 -0.00312009 0.06015134 0.022123724 -0.13761182 0.07611276 0.27758914 0.043161135
-0.28863427 0.07430648 0.04098426 0.043406095 0.113292366 0.15418205 0.05328322 0.13380797
-0.17243971 0.037075035 -0.1907686 -0.15118545 0.13186969 0.18593557 0.019391896 0.12786101
0.019944662 0.04558695 0.08058273 -0.09254872 -0.21732633 -0.1266934 0.07565348 -0.053900205
-0.22294712 -0.12620832 -0.18520175 0.21378978 0.14265905 -0.14113231 0.20040818 0.113074765
-0.20330803 -0.018286854 0.06083827 -0.033070244 -0.3444922 -0.1623403 -0.21099703 0.17495437
-0.2220946 0.010233197 0.11459279 -0.057846587 -0.11014518 0.07220908 -0.04824498 -0.03409782
-0.1147299 0.20212741 0.11352558 0.21564297 0.20755073 0.112442836 0.062114507 0.15117034
0.07965869 0.09434396 -0.12457868 0.3160471 -0.0023322091 -0.08306861 -0.06385526 0.10436692
0.060584757 0.20549804 0.09538464 0.1509573 0.029011048 0.013842736 0.15957269 0.062232822
0.11412412 -0.27885038 -0.13162288 -0.062796935 0.17764057 -0.20298643 0.19177274 -0.114421815
-0.095339 0.0138890995 0.053209256 0.37135205 0.28781083 0.0006792359 -0.1869379 -0.020364378
4.169943e-05 0.15956415 0.05541883 -0.12836373 -0.17877607 0.09708615 0.034356117 0.016067686
-0.10251953 0.31489864 0.18045077 -0.15248828 -0.035482556 0.14602931 -0.20956463 0.075813524
-0.058646426 -0.20451431 0.0400615 0.11086554 0.024286894 0.11534676 -0.029123612 0.1356127
-0.2370582 0.10688739 -0.15450545 -0.16014327 -0.29218224 0.08316046 0.043687433 -0.09326528
-0.058009718 0.0581538 0.25698125 0.013029783 0.12857248 0.22450002 -0.098925054 0.17486872
-0.043575432 -0.07866264 0.059628617 0.111550555 0.20006685 -0.040567502 0.0060532773 0.014251544
0.06746816 -0.14013119 -0.005721054 0.12081708 0.16022903 -0.0022564596 0.022069134 0.17653032
0.021923931 0.119854026 0.054882556 0.15605241 0.05810004 0.37391576 0.009033756 0.0003770885
0.037719816 0.0050301305 -0.0015427419 -0.04548385 -0.19226576 0.13481915 0.08381954 0.0743656
-0.05635481 0.11503826 -0.038997035 -0.05678689 0.20945366 -0.15900978 0.14697623 -0.018269675
0.010262459 0.18140888 0.44412643 0.022182593 -0.26897094 0.15012275 0.19566242 0.11253681
-0.015514889 -0.37196076 -0.0455761 0.023091875 -0.098715976 0.15611865 -0.13822447 0.0059473333
0.019410398 -0.08279794 -0.062189694 -0.14413418 0.12612917 0.007652736 -0.038368 0.086549066
-0.12559192 0.381759 0.049527805 -0.15962557 0.13768904 -0.033770237 -0.32074276 0.05187933
-0.06492618 0.2324897 0.15113446 0.138679 -0.015128163 -0.12812774 0.041061405 0.1351557
-0.07885071 -0.15058309 -0.117559284 -0.030710181 0.14951229 0.43771616 0.11953845 0.14133486
-0.21323782 0.10142507 0.19653158 -0.045374636 -0.033149175 -0.022932617 0.09258314 -0.071762234
-0.083792716 -0.19405252 -0.14274967 0.02139125 0.1278641 -0.02953652 -0.08667242 0.12977976
0.05527028 0.012838149 -0.07210534 0.12659457 -0.30014566 -0.25398967 0.1606294 0.014229864
00000000: 2ee9 4d3e 3768 f8bd e07b a7bd c23d f7bd
00000010: 50cd 4c3d 5f9a 7dbe 9cfd fa3d 29b6 9f3d
00000020: 7d73 093c 6d7a 4cbb 4061 763d d03c b53c
00000030: 1dea 0cbe 02e1 9b3d 2a20 8e3e bbc9 303d
00000040: dfc7 93be ff2d 983d 1ddf 273d 97ca 313d
00000050: d405 e83d e6e1 1d3e 813f 5a3d f504 093e
00000060: 0994 30be fedb 173d d858 43be 5cd0 1abe
00000070: d908 073e e565 3e3e c1db 9e3c ffed 023e
00000080: fd62 a33c 62b9 3a3d 8f08 a53d 2f8a bdbd
00000090: cb8a 5ebe eabb 01be 36f0 9a3d 76c6 5cbd
000000a0: 404c 64be c13c 01be 87a5 3dbe b5eb 5a3e
000000b0: 3715 123e fd84 10be cd37 4d3e be93 e73d
000000c0: fb2f 50be 50ce 95bc 8d31 793d aa74 07bd
000000d0: 4861 b0be 893c 26be 9b0f 58be 3d27 333e
000000e0: c46c 63be 24a9 273c a0af ea3d 8bf0 6cbd
000000f0: cc93 e1bd 5be2 933d 879c 45bd 28aa 0bbd
00000100: 83f7 eabd 7dfa 4e3e 1980 e83d 83d1 5c3e
00000110: 2e88 543e 6e48 e63d c86b 7e3d 66cc 1a3e
00000120: 1824 a33d 6837 c13d 1b23 ffbd edd0 a13e
00000130: fad7 18bb e01f aabd 8cc6 82bd 53be d53d
00000140: b927 783d 146e 523e 0659 c33d 8d94 1a3e
00000150: 94a8 ed3c a5cc 623c 0667 233e d8e7 7e3d
00000160: e8b9 e93d 7ac5 8ebe 26c8 06be ae9b 80bd
00000170: 69e7 353e addb 4fbe 1360 443e fc55 eabd
00000180: 1841 c3bd 1b8f 633c f3f1 593d db21 be3e
00000190: f15b 933e c00e 323a a66c 3fbe 32d3 a6bc
000001a0: 6ce6 2e38 c964 233e dbfe 623d c871 03be
000001b0: 1311 37be 1ad5 c63d 00b9 0c3d 61a0 833c
000001c0: c2f5 d1bd 653a a13e 16c8 383e e325 1cbe
000001d0: 2856 11bd b588 153e 1c98 56be 1f44 9b3d
000001e0: 3c37 70bd 336c 51be 8717 243d 790d e33d
000001f0: 4ff5 c63c ec3a ec3d a494 eebc 0ede 0a3e
00000200: 63bf 72be c7e7 da3d ad36 1ebe 99fc 23be
00000210: e998 95be 0850 aa3d 98f1 323d de01 bfbd
00000220: 999b 6dbd ae32 6e3d 0c93 833e df7a 553c
00000230: 81a8 033e 55e3 653e 3899 cabd c910 333e
00000240: 277c 32bd e119 a1bd 233d 743d 9e74 e43d
00000250: 53de 4c3e 1c2a 26bd 925a c63b 4f7f 693c
00000260: bf2c 8a3d 8d7e 0fbe ae77 bbbb f26e f73d
00000270: 1413 243e 1ce1 13bb 54ca b43c 5dc4 343e
00000280: d199 b33c 0776 f53d 88cc 603d 34cc 1f3e
00000290: 4ffa 6d3d e371 bf3e 5202 143c f6b3 c539
000002a0: 1880 1a3d cbd3 a43b d435 caba 464d 3abd
000002b0: 51e1 44be 080e 0a3e 94a9 ab3d fe4c 983d
000002c0: 4dd4 66bd 2e99 eb3d 5bbb 1fbd 5f99 68bd
000002d0: 057b 563e 76d3 22be f080 163e 49aa 95bc
000002e0: df23 283c 40c3 393e 8a64 e33e 45b8 b53c
000002f0: 8fb6 89be c7b9 193e bb5b 483e b379 e63d
00000300: 2932 7ebc a471 bebe 01ae 3abd 2c2b bd3c
00000310: 9a2b cabd 91dd 1f3e b78a 0dbe d9e1 c23b
00000320: 8e02 9f3c f791 a9bd 9fba 7ebd e997 13be
00000330: 0128 013e cdc3 fa3b c427 1dbd a340 b13d
00000340: 2b9b 00be ea75 c33e abdd 4a3d e374 23be
00000350: 5bfe 0c3e a952 0abd 6538 a4be 6c7f 543d
00000360: 04f8 84bd c811 6e3e fec2 1a3e de01 0e3e
00000370: 1ddc 77bc eb33 03be 0130 283d 4166 0a3e
00000380: 7b7c a1bd 7432 1abe ecc2 f0bd eb93 fbbc
00000390: c019 193e 551c e03e 93d0 f43d 16ba 103e
000003a0: 045b 5abe f2b7 cf3d 933f 493e c1da 39bd
000003b0: 6ec7 07bd 2fdd bbbc 3b9c bd3d 14f8 92bd
000003c0: 849b abbd b4b5 46be f82c 12be b43c af3c
000003d0: ceee 023e 92f6 f1bc 4f81 b1bd fce4 043e
000003e0: 1763 623d 1a57 523c f7ab 93bd 02a2 013e
000003f0: b1ac 99be ef0a 82be 097c 243e 6024 693c

fc3.bias f4 [64]
0.076035924 -0.011055945 0.077011965 0.032147516 0.06905248 0.017281186 -0.0040608337 0.09983331
0.009063799 -0.07594558 -0.04339301 0.026411926 0.1288269 -0.03285115 0.045246284 0.059190888
0.059396297 0.023958787 0.016919583 0.10147792 -0.028181707 0.04387278 0.03642797 -0.037895896
0.020538757 0.097422704 0.053176828 -0.027469741 0.069458716 0.10921486 0.057277676 0.012721424
0.07812553 -0.025274653 0.14989252 0.0033705744 0.028334675 0.044965345 0.10091571 0.09794167
0.1391394 0.11551879 -0.007049162 0.0760516 0.0066732788 0.033441048 0.054810718 0.07481966
-0.008305953 0.10504606 0.1154916 0.104369774 0.118355565 -0.020689502 0.0013205647 0.043061428
-0.056309037 0.025891632 0.07929341 0.10130901 0.107177556 -0.0026082108 0.098151214 0.059207447
00000000: b9b8 9b3d ff23 35bc 73b8 9d3d 1dad 033d
00000010: 636b 8d3d 4691 8d3c be10 85bb 6875 cc3d
00000020: 5480 143c 5b89 9bbd debc 31bd d35d d83c
00000030: 33eb 033e ed8e 06bd 2b54 393d 2572 723d
00000040: 8849 733d 3845 c43c f09a 8a3c a8d3 cf3d
00000050: 53dd e6bc f2b3 333d 7f35 153d ba38 1bbd
00000060: e540 a83c 8e85 c73d f2cf 593d 3908 e1bc
00000070: 5f40 8e3d 0aac df3d ff9b 6a3d 856d 503c
00000080: 4700 a03d ca0c cfbc 6d7d 193e dbe4 5c3b
00000090: 1f1e e83c 952d 383d e5ac ce3d a495 c83d
000000a0: 8f7a 0e3e 1e95 ec3d a8fc e6bb f1c0 9b3d
000000b0: 85ab da3b 7bf9 083d 3481 603d 0d3b 993d
000000c0: b115 08bc 6422 d73d dc86 ec3d d2bf d53d
000000d0: 6764 f23d 087d a9bc cc16 ad3a 2e61 303d
000000e0: 4ea4 66bd b01a d43c 9564 a23d 197b cf3d
000000f0: e87f db3d 84ee 2abb 8103 c93d 8283 723d

fc4.weight f4 [4, 64]
0.014745303 0.26388916 0.05553798 0.02560021 -0.1786196 0.23793216 -0.2110578 -0.42115402
-0.15483692 0.24363908 0.19612882 0.13462947 0.11733731 0.012054158 0.045523323 0.1647234
-0.19874802 -0.18627742 -0.25331903 0.21036065 -0.20122702 -0.31945744 -0.11587928 -0.31452942
-0.15131189 -0.36864913 0.189128 -0.05112774 -0.018373381 0.066967934 -0.029209958 0.20403013
-0.3510359 0.09831148 0.14234231 -0.19981721 -0.025125438 0.16874972 0.2948724 0.12988791
0.27380356 0.3241667 0.31380135 -0.29461974 -0.28458115 -0.014346339 -0.09819533 -0.2705257
0.21589728 0.414678 0.23825856 0.100607865 0.061370358 -0.22516145 -0.24107394 -0.3044446
-0.055067953 -0.14969693 0.20496689 0.14931077 -0.050000135 0.19938354 -0.2006113 0.13492294
-0.20550126 0.28335714 0.20767015 0.54409796 -0.2972995 -0.3273883 0.3202837 -0.0557061
-0.059459664 0.08338799 -0.08372735 -0.048115253 -0.37444982 0.19924413 -0.39367086 0.11138647
-0.2338941 0.2601723 -0.24146615 0.008534174 -0.06943918 0.081735775 -0.057722367 0.12962453
-0.07947738 0.16450033 0.06835506 -0.028107967 0.26210973 -0.18767893 -0.031696808 -0.058486253
0.13674198 -0.23904596 0.087576635 -0.19862482 -0.24848871 -0.27573875 -0.19335999 -0.12211881
0.19099668 0.100888886 -0.07220711 0.023986999 0.44040322 0.19792031 0.07610097 -0.19845901
0.2280646 0.048231307 0.5541782 -0.2473096 -0.30152655 -0.027960448 0.27283502 0.15513153
0.25030148 -0.29358855 0.1525306 0.37345597 -0.47402415 0.121932216 -0.22179525 0.21261114
0.24694163 0.054950494 0.19791219 -0.00429825 0.03996707 -0.03891083 0.017086025 0.15835635
-0.14174165 0.19240436 0.1569529 -0.2592756 -0.18639728 0.21993592 -0.07753959 -0.00076896243
-0.1864403 -0.2547102 -0.2734582 -0.16334876 0.25180224 -0.014997157 0.34720564 -0.067692086
0.32492954 -0.15180314 0.1456934 -0.13212027 -0.23549646 0.05081353 0.30754286 0.10897061
-0.15463232 0.13535583 -0.110959135 -0.11807769 0.1698951 -0.1785159 -0.17008655 0.13697052
-0.1362671 -0.1118831 0.09825582 0.0723806 -0.17606886 -0.4986902 0.13570371 -0.11762255
0.1999325 -0.119946584 -0.11284996 0.17111874 -0.30667895 -0.25128073 -0.09984442 -0.21698469
0.1330606 0.007981803 0.14439166 -0.002896058 -0.12317472 0.30910125 -0.09755436 -0.3774418
-0.045901466 -0.05722405 -0.22949667 -0.18292758 -0.06422209 -0.15530652 0.07928506 0.009761168
-0.47070718 -0.17266497 -0.14882982 -0.16434307 0.24065246 0.17671709 0.13690065 -0.28712562
0.23750654 -0.020010157 0.03208862 0.12768844 -0.23706703 0.001966524 -0.14419936 -0.2175135
0.075973615 -0.03723641 0.15762596 0.38160643 -0.11748031 -0.27940992 0.16389242 0.26290616
0.034511644 -0.29244953 0.32835898 -0.20185325 0.14086886 -0.18309073 0.15089647 0.2559796
0.17364585 0.07757689 -0.1360982 -0.19034189 0.1287652 0.02443511 0.16381012 -0.18794782
-0.016649004 0.046387706 0.17069522 0.23356481 -0.15007456 0.51369095 -0.1665122 0.17424272
0.13543673 -0.026676383 -0.2795304 0.21755438 0.1255653 0.057115737 0.24646403 0.020639202
00000000: 4996 713c 7b1c 873e cb7b 633d 88b7 d13c
00000010: 0ee8 36be 7da4 733e 891f 58be 80a1 d7be
00000020: 928d 1ebe 867c 793e fed5 483e 4fdc 093e
00000030: 8b4e f03d ce7e 453c aa76 3a3d 40ad 283e
00000040: 9a84 4bbe 82bf 3ebe 08b3 81be c868 573e
00000050: 750e 4ebe ed8f a3be 1e52 edbd 000a a1be
00000060: 81f1 1abe 94bf bcbe c5aa 413e 526b 51bd
00000070: c683 96bc 7c26 893d b949 efbc 46ed 503e
00000080: faba b3be 8757 c93d 2fc2 113e e29c 4cbe
00000090: ddd3 cdbc bacc 2c3e 84f9 963e 5601 053e
000000a0: fb2f 8c3e 2df9 a53e 92aa a03e 66d8 96be
000000b0: 9fb4 91be e80c 6bbc a21a c9bd 5882 8abe
000000c0: 2d14 5d3e ad50 d43e 0dfa 733e 7f0b ce3d
000000d0: 7c5f 7b3d b990 66be 16dc 76be 2ae0 9bbe
000000e0: ef8e 61bd 274a 19be d7e2 513e ece4 183e
000000f0: f1cc 4cbd 332b 4c3e 0c6d 4dbe 3d29 0a3e
00000100: ec6e 52be 3014 913e 7ca7 543e 014a 0b3f
00000110: a437 98be 709f a7be 3afc a33e 142c 64bd
00000120: fa8b 73bd 53c7 aa3d 3f79 abbd 8014 45bd
00000130: e3b7 bfbe a706 4c3e 3a8f c9be 971e e43d
00000140: ef81 6fbe 4e35 853e e742 77be ecd2 0b3c
00000150: 2136 8ebd 1665 a73d 4a6e 6cbd 4bbc 043e
00000160: 09c5 a2bd c672 283e bdfd 8b3d ae42 e6bc
00000170: 3f33 863e e82e 40be 83d4 01bd 488f 6fbd
00000180: 1706 0c3e 77c8 74be 615b b33d 4e64 4bbe
00000190: d373 7ebe a12d 8dbe 2900 46be 6d19 fabd
000001a0: a294 433e d59e ce3d 52e1 93bd 6280 c43c
000001b0: 887c e13e 9fab 4a3e d3da 9b3d d738 4bbe
000001c0: c489 693e 318e 453d 9fde 0d3f ba3e 7dbe
000001d0: b061 9abe 4f0d e5bc 08b1 8b3e cdda 1e3e
000001e0: 8427 803e 3d51 96be fb30 1c3e 9f35 bf3e
000001f0: 4bb3 f2be 99b7 f93d 4b1e 63be bcb6 593e
00000200: 44de 7c3e c513 613d 7ea9 4a3e 56d8 8cbb
00000210: 83b4 233d f660 1fbd fef7 8b3c 2b28 223e
00000220: b924 11be a605 453e 43b8 203e c5bf 84be
00000230: eede 3ebe e236 613e 14cd 9ebd 3294 49ba
00000240: 35ea 3ebe 6069 82be b702 8cbe e644 27be
00000250: 39ec 803e a3b6 75bc f0c4 b13e 26a2 8abd
00000260: 2a5d a63e 4872 1bbe a730 153e 894a 07be
00000270: fc25 71be d921 503d 4276 9d3e fc2b df3d
00000280: ef57 1ebe b89a 0a3e 8b3e e3bd b7d2 f1bd
00000290: fbf8 2d3e dfcc 36be 2b2b 2ebe 0042 0c3e
000002a0: 9a89 0bbe f722 e5bd 593a c93d 483c 943d
000002b0: 654b 34be 5254 ffbe eaf5 0a3e 17e4 f0bd
000002c0: 1bbb 4c3e 8ea6 f5bd e11d e7bd c039 2f3e
000002d0: 0605 9dbe dea7 80be 3b7b ccbd 3c31 5ebe
000002e0: 0a41 083e 1cc6 023c 68db 133e cacb 3dbb
000002f0: 0743 fcbd 8542 9e3e 95ca c7bd 0d40 c1be
00000300: 2d03 3cbd c463 6abd 2d01 6bbe 5e51 3bbe
00000310: df86 83bd ac08 1fbe 3560 a23d 4eed 1f3c
00000320: 8800 f1be 16cf 30be d866 18be 8d49 28be
00000330: 996d 763e 53f5 343e af2f 0c3e 2102 93be
00000340: ea34 733e 57ec a3bc 5b6f 033d c2c0 023e
00000350: b3c1 72be cce0 003b ffa8 13be dcbb 5ebe
00000360: 0e98 9b3d 3585 18bd b368 213e eb61 c33e
00000370: 8499 f0bd d10e 8fbe 6ad3 273e a39b 863e
00000380: 155c 0d3d f2bb 95be ab1e a83e 9eb2 4ebe
00000390: ed3f 103e 237c 3bbe 9b84 1a3e c20f 833e
000003a0: 38d0 313e a2e0 9e3d 545d 0bbe fce8 42be
000003b0: 06db 033e 242c c83c d7bd 273e 6575 40be
000003c0: 7e63 88bc 0901 3e3d baca 2e3e 9d2b 6f3e
000003d0: 25ad 19be 4081 033f 2d82 2abe af6c 323e
000003e0: edaf 0a3e 6e88 dabc 9c1e 8fbe 93c6 5e3e
000003f0: 3194 003e 31f2 693d 1161 7c3e 8b13 a93c

fc4.bias f4 [4]
0.024434162 -0.09508566 -0.036329135 -0.095041335
00000000: 272a c83c 45bc c2bd dccd 14bd 08a5 c2bd

bn1.weight f4 [128]
0.2891387 0.28868443 0.997655 0.7865423 0.49099824 0.7366309 0.21483243 1.0373175
0.940801 0.7076271 0.87124604 0.6107856 0.18463145 0.35807386 0.51979375 0.84442437
0.9391682 0.8895048 0.47799048 0.7680679 1.0039302 0.91872746 1.0265789 0.46737266
0.6406655 0.38400283 1.0131482 0.7533587 1.0855515 1.2401142 0.77783424 0.67892236
0.3390695 0.9629981 0.5066579 0.8523132 0.7506715 0.61753684 0.8691401 0.29995754
-0.00014139191 0.90171546 0.6904659 0.41133255 0.3047397 0.6080984 0.89136297 0.8639195
0.51788473 0.8260217 0.674294 0.55371153 0.3181671 0.616523 0.6193308 0.92325336
0.8602686 0.31569543 0.632069 0.74944735 0.52381146 0.6779601 0.8648956 0.61486346
0.15836051 0.3318297 0.1805063 0.7330577 0.95155144 0.6719248 0.54958576 0.44505602
0.9729379 0.4652879 0.59357524 0.8138162 0.95758843 0.82661265 0.34449935 0.39724407
0.30035222 0.5262484 0.6812493 0.4923497 0.6745978 0.88329536 0.47021186 0.72191006
0.81876975 1.0678478 0.3784246 0.8529886 0.49490178 0.8169109 0.35751262 1.151983
0.70818794 0.47182393 0.9432584 0.36735156 0.53060424 0.6833369 0.9219308 0.73520356
0.41305932 0.6347467 0.7368352 0.41794744 0.34951723 0.2577235 0.662307 0.51983786
0.8810708 0.7038554 0.4893291 0.7985929 0.7634633 1.0118406 0.88605595 0.9289726
0.7798765 1.0432358 0.6785665 0.7484249 0.49981248 0.86871976 0.48071125 0.9865282
00000000: fd09 943e 72ce 933e 5166 7f3f d65a 493f
00000010: 1f64 fb3e d893 3c3f 08fd 5b3e d2c6 843f
00000020: 56d8 703f 0d27 353f fb09 5f3f 725c 1c3f
00000030: 0710 3d3e 7555 b73e 3411 053f 322c 583f
00000040: 546d 703f 96b6 633f 2bbb f43e 19a0 443f
00000050: c980 803f b931 6b3f f066 833f 784b ef3e
00000060: a702 243f 059c c43e d7ae 813f 1edc 403f
00000070: 5af3 8a3f 10bc 9e3f 2520 473f dbcd 2d3f
00000080: 849a ad3e 0b87 763f 55b4 013f 3331 5a3f
00000090: 022c 403f e516 1e3f f77f 5e3f 0994 993e
000000a0: 9a42 14b9 d3d6 663f 60c2 303f 2e9a d23e
000000b0: d806 9c3e 56ac 1b3f 5d30 643f d429 5d3f
000000c0: 1894 043f 2876 533f 889e 2c3f 0ac0 0d3f
000000d0: cce6 a23e 74d4 1d3f 778c 1e3f 555a 6c3f
000000e0: 903a 5c3f d5a2 a13e 46cf 213f c8db 3f3f
000000f0: 8218 063f cb8e 2d3f cc69 5d3f b167 1d3f
00000100: 4229 223e 95e5 a93e a5d6 383e aba9 3b3f
00000110: e098 733f 4403 2c3f a7b1 0c3f 62de e33e
00000120: 7512 793f 373a ee3e 8cf4 173f 4256 503f
00000130: 8424 753f e39c 533f 3862 b03e 9363 cb3e
00000140: c4c7 993e 37b8 063f 5b66 2e3f 4315 fc3e
00000150: 71b2 2c3f a51f 623f 9cbf f03e 19cf 383f
00000160: e59a 513f 3daf 883f dfc0 c13e 765d 5a3f
00000170: c463 fd3e 1321 513f e50b b73e 2e74 933f
00000180: ce4b 353f e892 f13e 6279 713f 8115 bc3e
00000190: aed5 073f 2bef 2e3f a803 6c3f 4d36 3c3f
000001a0: 837c d33e c27e 223f 3ba1 3c3f 35fd d53e
000001b0: ecf3 b23e 56f4 833e f48c 293f 1814 053f
000001c0: db8d 613f de2f 343f 5889 fa3e 9670 4c3f
000001d0: 5572 433f fe83 813f 90d4 623f 26d1 6d3f
000001e0: fca5 473f c088 853f 89b6 2d3f c698 3f3f
000001f0: 6ce7 ff3e 6b64 5e3f c91f f63e 1d8d 7c3f

bn1.bias f4 [128]
0.07493561 0.0005640662 0.10214046 0.03567393 0.016215032 0.08291684 0.08125649 0.047447465
0.058759328 0.051784113 0.0008241405 0.03651818 -0.061635617 0.103601426 0.04369661 0.15997349
0.05464765 -0.010126607 -0.015224373 0.12089591 0.0056584594 -0.023097284 0.10266822 -0.008010892
-0.0005181559 -0.0038436833 0.063840345 0.058422644 0.02568477 0.20189618 0.12574312 0.027245741
0.14642891 -0.025607865 -0.031061493 0.020664936 -0.0018184762 0.009349866 0.057287205 -0.12237842
-0.0019784353 0.06351155 0.0051908167 0.032451082 0.03708596 0.07138497 0.038698684 -0.10864055
0.011592959 0.046808787 -0.05629812 -0.04592856 0.048316564 0.023235185 -0.061695747 0.081621744
0.04550359 -0.063910976 0.076535776 -0.0797344 0.0515949 0.06578791 -0.041692495 0.0050528497
-0.065266356 0.073833875 0.07775047 0.0013527077 -0.14097518 0.10410273 0.1051674 -0.13038483
0.06076819 0.111641295 -0.034727573 0.012878324 0.0025358547 0.07471947 -0.06889507 0.05459215
-0.0008304214 -0.008913544 -0.02814406 -0.07752452 -0.0010791898 0.062654726 0.032813393 0.19236116
-0.022589006 0.121864974 0.05599786 0.04894399 0.10149723 -0.02726284 0.024806743 -0.056064773
-0.031270307 0.03358505 -0.0785555 -0.033465784 -0.010151064 -0.11007054 -0.10961429 0.033374753
0.03562675 0.11191806 0.08335817 0.16101502 0.028830443 -0.07393363 0.06579105 0.0003291577
0.10980196 -0.095837854 -0.02340913 -0.06273943 0.0235339 -0.020545175 0.03733215 0.100828655
0.046065893 0.11105359 -0.05008383 -0.05252676 0.01139375 0.06845465 0.11689286 -0.06667369
00000000: d777 993d d8dd 133a 042f d13d d41e 123d
00000010: 63d5 843c 4ed0 a93d cd69 a63d 4658 423d
00000020: 9fad 703d 941b 543d 220b 583a 1694 153d
00000030: a175 7cbd fc2c d43d 37fb 323d 17d0 233e
00000040: 37d6 5f3d 11ea 25bc a66f 79bc 4698 f73d
00000050: 996a b93b 8436 bdbc b743 d23d 1e40 03bc
00000060: dbd4 07ba 4ee6 7bbb babe 823d 954c 6f3d
00000070: de68 d23c dfbd 4e3e cec2 003e 7632 df3c
00000080: 76f1 153e 96c7 d1bc ac74 febc 8349 a93c
00000090: f059 eeba 2e30 193c fda5 6a3d 89a1 fabd
000000a0: a3a8 01bb 5812 823d ba17 aa3b 6deb 043d
000000b0: 73e7 173d 4832 923d 8382 1e3d f07e debd
000000c0: 65f0 3d3c 92ba 3f3d dc98 66bd 961f 3cbd
000000d0: 97e7 453d b757 be3c aeb4 7cbd 4d29 a73d
000000e0: f961 3a3d c2e3 82bd cabe 9c3d ca4b a3bd
000000f0: 2d55 533d d0bb 863d c0c5 2abd 6092 a53b
00000100: 5eaa 85bd 3736 973d a33b 9f3d 574d b13a
00000110: cc5b 10be d033 d53d 0162 d73d 9a83 05be
00000120: 11e8 783d 31a4 e43d 803e 0ebd 9bff 523c
00000130: 9530 263b 8606 993d dc18 8dbd 059c 5f3d
00000140: a3b0 59ba 1d0a 12bc 5f8e e6bc 2dc5 9ebd
00000150: 9a73 8dba 1f51 803d 5667 063d 53fa 443e
00000160: 940c b9bc 5894 f93d 035e 653d 7e79 483d
00000170: c8dd cf3d 5256 dfbc 8337 cb3c 2da4 65bd
00000180: 4b15 00bd 7a90 093d b5e1 a0bd 6b13 09bd
00000190: a650 26bc aa6c e1bd 757d e0bd f7b3 083d
000001a0: 5bed 113d 4c35 e53d b0b7 aa3d 1fe1 243e
000001b0: d22d ec3c 846a 97bd 75bd 863d cc92 ac39
000001c0: dadf e03d a346 c4bd 81c4 bfbc 887d 80bd
000001d0: 2aca c03c 5b4e a8bc 99e9 183d 417f ce3d
000001e0: 97af 3c3d 1170 e33d b424 4dbd 4d26 57bd
000001f0: daac 3a3c f431 8c3d 8665 ef3d 378c 88bd

bn1.running_mean f4 [128]
-0.5575175 0.25962174 0.23264077 -1.2798489 -0.21725497 1.0144216 0.48241004 -0.24487656
0.3496445 0.018043498 0.26620078 -0.7635171 -0.16051717 -0.30137318 0.5842222 0.4449579
0.967179 0.30127338 0.2539773 0.86658573 0.2763618 -0.99691147 -0.46326587 0.3452934
-0.121916935 -0.53751296 -0.18933092 -0.59823316 -0.29588285 -0.22738683 0.026887214 0.5431405
0.82339036 -0.03276124 -0.063316874 -0.27277893 1.1126461 0.024690714 0.02553432 -0.25643164
0.10415465 0.32587677 -0.5179082 0.38285163 -0.36484486 -0.31956136 0.033075213 0.27751634
-0.36610413 -0.27499107 -0.30424812 -0.6927533 -1.185669 0.37328887 -1.0435566 -0.27745774
-0.32995543 -1.1526265 -0.4866318 0.029098352 0.00733019 0.43257257 -0.29986426 0.77686304
-0.26330072 0.783932 -0.18856326 0.5318196 -0.046075568 -0.3020601 -0.72548795 0.39210817
0.7230994 -0.07689788 -0.44897577 -0.29629034 0.11702231 -0.027934665 -0.28609246 0.38307184
-0.23550609 -0.17701712 -0.8761665 -0.18052594 -0.10051044 -0.27924812 0.5087305 0.26163784
-0.41366664 -0.05172964 -0.48152936 0.13413557 1.0377274 1.2507842 -0.31466803 -0.014402102
-0.14077733 -0.51642865 0.67182404 1.044351 -0.4285324 0.023818469 -0.39511785 -0.5988399
0.0420518 -0.050531935 0.049629368 0.61325395 0.38969973 1.0225897 -0.014663612 0.7490616
-0.08970336 -0.13694616 0.030541725 -1.2811002 0.015667344 0.018720457 0.19979893 0.2333662
-0.34964538 0.35121578 0.3316267 -0.27107462 -0.46855682 0.47017083 1.2856357 -1.0928199
00000000: 78b9 0ebf 24ed 843e 6239 6e3e 17d2 a3bf
00000010: 1678 5ebe 91d8 813f 73fe f63e ecc0 7abe
00000020: 9b04 b33e f5cf 933c 784b 883e db75 43bf
00000030: 9d5e 24be 964d 9abe 968f 153f 86d1 e33e
00000040: 0b99 773f 8140 9a3e 5009 823e 90d8 5d3f
00000050: 4b7f 8d3e 9735 7fbf 2f31 edbe 4cca b03e
00000060: 96af f9bd 739a 09bf f7df 41be cf25 19bf
00000070: f57d 97be 18d8 68be 9342 dc3c 410b 0b3f
00000080: b6c9 523f a630 06bd 47ac 81bd aea9 8bbe
00000090: 306b 8e3f 2e44 ca3c 5a2d d13c 024b 83be
000000a0: 084f d53d 52d9 a63e a295 04bf 2105 c43e
000000b0: f2cc babe 8c9d a3be e079 073d 9f16 8e3e
000000c0: 0072 bbbe a1cb 8cbe 69c6 9bbe 4858 31bf
000000d0: 00c4 97bf b81f bf3e 4393 85bf f10e 8ebe
000000e0: ebef a8be 4489 93bf ce27 f9be ab5f ee3c
000000f0: 1732 f03b 277a dd3e cf87 99be 7fe0 463f
00000100: 5acf 86be c4af 483f ba16 41be 5425 083f
00000110: bcb9 3cbd 9fa7 9abe 94b9 39bf 67c2 c83e
00000120: 0b1d 393f a37c 9dbd 27e0 e5be 5eb3 97be
00000130: 65a9 ef3d 3dd7 e4bc b67a 92be fe21 c43e
00000140: 8228 71be fa43 35be 734c 60bf cbdb 38be
00000150: 6bd8 cdbd 9cf9 8ebe 293c 023f 65f5 853e
00000160: 1dcc d3be 76e2 53bd 048b f6be d65a 093e
00000170: 40d4 843f b219 a03f 2b1c a1be cbf6 6bbc
00000180: ef27 10be ab34 04bf a9fc 2b3f 4bad 853f
00000190: 9968 dbbe f31e c33c e34c cabe 924d 19bf
000001a0: 823e 2c3d 93fa 4ebd 2a48 4b3d 36fe 1c3f
000001b0: b986 c73e 38e4 823f a53f 70bc 80c2 3f3f
000001c0: 65b6 b7bd 9d3b 0cbe a432 fa3c 17fb a3bf
000001d0: cd58 803c a55b 993c 1798 4c3e 8df7 6e3e
000001e0: b804 b3be 8ed2 b33e faca a93e 4bca 8abe
000001f0: aee6 efbe 3bba f03e b68f a43f 86e1 8bbf

bn1.running_var f4 [128]
0.60415965 0.4457624 0.17285512 3.083934 2.569452 1.2916383 0.50147426 2.2301886
0.18953045 1.4884769 1.8771238 0.84359 2.2941606 0.5355803 0.3737572 0.29242715
0.7779951 0.6971036 1.4940056 1.6188109 2.2739573 0.83440405 0.42445034 0.37120095
0.8758455 0.32267377 0.59375215 0.677092 0.6321028 0.3987433 0.4176587 1.5384489
0.405354 0.39517918 0.5331577 0.44147813 1.632106 0.44839478 1.0052384 1.1492078
1.5600442 0.7356493 0.89836675 1.1320693 1.4044306 0.26672295 0.30089512 0.95579445
0.17181355 0.37831324 1.5701816 1.6527901 1.9886501 0.25585043 0.33566517 0.15296859
0.91805935 0.464088 0.37172556 0.77434224 0.21144222 0.68137604 0.8284699 3.6203935
2.678164 1.3399307 0.32548738 1.9444923 0.5330227 0.35522538 0.16477856 2.5659215
1.3000017 0.19752033 0.2956936 0.6329536 0.539561 0.45176694 2.0898688 0.49276233
0.60520476 0.48897895 3.0270257 3.0592723 0.84522694 0.12869193 1.0389726 0.09012657
0.17635344 0.6380443 0.416087 0.49374664 0.8988054 1.0813417 0.5473446 0.51406944
0.39842594 0.4744151 3.0585794 1.939513 2.224635 0.71380913 4.7299147 1.0469276
0.24975938 0.17816857 0.69985807 0.74266225 0.5063542 0.88711345 0.36172605 0.98845154
0.3066943 0.247746 1.025989 0.72841513 0.6612415 1.3160696 1.4326943 0.6917804
1.7472495 0.6034798 0.85162115 1.806457 0.64243346 1.6036007 0.3407869 0.51951987
00000000: 35aa 1a3f f83a e43e ef00 313e 2d5f 4540
00000010: e771 2440 6754 a53f 9e60 003f 69bb 0e40
00000020: 4514 423e 6986 be3f 9845 f03f 84f5 573f
00000030: 87d3 1240 ca1b 093f 1b5d bf3e 03b9 953e
00000040: b02a 473f 6275 323f 933b bf3f 3235 cf3f
00000050: 8488 1140 819b 553f 8e51 d93e 0d0e be3e
00000060: 6937 603f 7f35 a53e 2400 183f e755 2d3f
00000070: 7dd1 213f 1528 cc3e 5cd7 d53e e5eb c43f
00000080: 8f8a cf3e ed54 ca3e 067d 083f 6c09 e23e
00000090: d9e8 d03f 0094 e53e a7ab 803f 3e19 933f
000000a0: 87af c73f 8353 3c3f 5dfb 653f a6e7 903f
000000b0: 62c4 b33f e98f 883e ed0e 9a3e f2ae 743f
000000c0: e4ef 2f3e 46b2 c13e b6fb c83f a08e d33f
000000d0: 168c fe3f d4fe 823e 4edc ab3e cca3 1c3e
000000e0: f005 6b3f f19c ed3e d052 be3e 4b3b 463f
000000f0: 4f84 583e a96e 2e3f 9a16 543f 87b4 6740
00000100: 0a67 2b40 d982 ab3f 48a6 a63e 20e5 f83f
00000110: 2d74 083f 1ae0 b53e b6bb 283e 0f38 2440
00000120: 7566 a63f c542 4a3e 2765 973e 3f09 223f
00000130: ab20 0a3f ff4d e73e 69c0 0540 584b fc3e
00000140: b3ee 1a3f 735b fa3e caba 4140 1ecb 4340
00000150: cb60 583f d1c7 033e 0efd 843f 4794 b83d
00000160: ff95 343e df56 233f 5b09 d53e 5ccc fc3e
00000170: 1c18 663f 6869 8a3f c71e 0c3f 0e9a 033f
00000180: 7cfe cb3e 89e6 f23e c4bf 4340 f641 f83f
00000190: 6b60 0e40 32bc 363f 765b 9740 b901 863f
000001a0: ecc0 7f3e d271 363e e629 333f 1d1f 3e3f
000001b0: 6ea0 013f de19 633f 2834 b93e 290b 7d3f
000001c0: 0907 9d3e 21b1 7d3e 9c53 833f 6a79 3a3f
000001d0: 1f47 293f f874 a83f 8762 b73f 8518 313f
000001e0: dfa5 df3f a77d 1a3f d803 5a3f fc39 e73f
000001f0: 8576 243f ca42 cd3f 9f7b ae3e 41ff 043f
